TSV_qwen2.5-7B_tqa/exemplar_num_32_num_selected_data_128/res/27/5/saved_vectors/tsv_layer_27.npy (npy, 14464 bytes, 1 tensors)

array f4 [3584]
00000000: 2d8a 423e 4bbc 3c3e 583a 453e 0015 393e
00000010: 85a4 3dbe 7885 3fbe abc1 43be bbdd 353e
00000020: f777 44be bb6c 3cbe c424 3dbe d305 3dbe
00000030: ea62 3b3e 2021 393e 872e 4b3e c0ec 3c3e
00000040: f726 3ebe 9e43 3dbe 4224 433e 9207 3cbe
00000050: 77e4 3a3e 30bc 3b3e bf6b 39be 9c0b 3e3e
00000060: 20d0 3cbe 087f 3bbe 4969 3e3e f609 2dbe
00000070: 6265 42be a795 3fbe a67b 3f3e 8c4c 3fbe
00000080: bfa5 1abe 4f64 3e3e a761 3d3e d367 3b3e
00000090: 4f06 40be 2b05 543e 8847 403e d6ae 3f3e
000000a0: 816d 3d3e 2865 3c3e b006 3fbe 0dbd 3fbe
000000b0: 1b72 413e d5bc 3f3e 7610 683e 161e 3f3e
000000c0: f357 39be 3c48 3ebe b205 3f3e fd64 423e
000000d0: 1de9 443e 1ea8 35be e6f8 3b3e 7c1d 41be
000000e0: eac3 40be ebf7 42be 59b3 413e 9277 38be
000000f0: edfc 3e3e 6666 3fbe 443d 7e3e b044 4e3e
00000100: 4874 2c3e 4671 3cbe b275 2f3e 0262 3abe
00000110: 4d81 43be 2503 3ebe 0336 3d3e 4a9c 3d3e
00000120: 750e 41be 3e09 3f3e 905d b13d c220 483e
00000130: 7ec6 3ebe 1708 403e 88e5 3dbe 10df 373e
00000140: e760 3ebe 5f2c 3bbe 6816 40be 0e45 403e
00000150: 7197 3b3e 335a 413e 253c 43be bfbd 433e
00000160: 1199 3b3e d74c 3ebe 649a 44be 25b3 133e
00000170: 6c3e 3ebe 1551 41be 7b55 413e 67f5 39be
00000180: 51f8 3dbe 688c 9dbd 9ebe 3b3e f50e be3c
00000190: d4a5 3cbe 7d87 35be 8c57 393e 131d 3e3e
000001a0: 3480 40be 8f46 3bbe 6704 3abe aac7 403e
000001b0: 9f75 3f3e 6701 38be 9f75 1abe 6a65 3ebe
000001c0: 0b7c 3d3e 1687 f63d de17 3bbe b314 6e3e
000001d0: d18f edbd 401c 3bbe 2bb8 3f3e ed84 a73c
000001e0: b7b9 2a3e ce38 3ebe a445 45be e850 35be
000001f0: 0cf7 3d3e b6cc 48be 4788 3cbe 8c7d 3cbe
00000200: db3c 35bb d3d1 3ebe 6802 2e3e 1455 3c3e
00000210: 151f 413e 636a 423e 9845 3b3e 3d24 183e
00000220: 4bb6 3e3e 1fa9 41be c144 40be 4b95 243e
00000230: fc26 3c3e c1b7 3c3e e80e 60be 06db 953e
00000240: 65b8 11be cc25 3e3e ecef 3ebe c1f4 40be
00000250: c476 443e 56f3 3dbe 461b 3d3e 1f58 3ebe
00000260: d5eb 3e3e 3c82 3e3e e81a 3f3e dc69 3fbe
00000270: 6f38 42be e7c7 44be 0ec7 3ebe 09b8 41be
00000280: 72f7 3bbe ddf8 3f3e fe58 763e 4e2f 40be
00000290: d252 403e bc32 413e 7783 863e 60db 3f3e
000002a0: 7a57 3d3e 2cf5 543e 6768 403e fa69 3fbe
000002b0: 1c8d 4a3e 9e45 37be ff3a 45be c054 38be
000002c0: 5ec0 3abe f33c 3cbe 9830 3ebe 921c 3cbe
000002d0: 74b7 483e a100 3f3e 72fc 41be 4cad 33be
000002e0: 4abc 37be 5bd1 3fbe fac1 3c3e 1a5c 383e
000002f0: d9cf 40be 63e2 3ebe ab42 6abe b4a7 3fbe
00000300: 0df6 3dbe f9ad 413e 24f5 3dbe ab0e 4a3d
00000310: 7d57 3ebe d446 3ebe 7c5c 1d3e 8c5e 3f3e
00000320: 4b16 38be 21c4 3b3e 1254 3e3e 0209 343e
00000330: d490 403e 80c0 3d3e 232d 3abe cefd 3e3e
00000340: bbf9 3e3e 336c 31be 3325 3e3e 845c 383e
00000350: 3fb5 3cbe a831 3ebe 23bb 3c3e 2096 413e
00000360: 8fbe 3f3e 7fd4 3fbe 9a80 3cbe 43a1 3d3e
00000370: 79ff 3ebe cae1 3dbe 509a 243e 233b 403e
00000380: e0e1 3d3e 207c 3e3e 00d5 3dbe f9b9 3ebe
00000390: b751 303e 37fb 553e 9d14 40be 92e4 3b3e
000003a0: 5c5a 3fbe f520 3fbe a98c 40be 17da 393e
000003b0: 169c 3b3e 8d46 3b3e f940 523e 69a7 2abe
000003c0: bf38 3dbe 9b87 3bbe 71d9 3d3e d218 403e
000003d0: a494 88be a4d4 3d3e 4fd3 3ebe f603 413e
000003e0: bf00 41be 526d 40be 94fd 3f3e 8b3b 27be
000003f0: 066f 3dbe a1bf 3dbe ec75 3f3e db05 3fbe
0.18998022 0.18431203 0.19260538 0.18074417 -0.1851979 -0.18703258 -0.19116847 0.17760365
-0.19186388 -0.18400852 -0.18471056 -0.18459253 0.18299451 0.18079042 0.19841968 0.18449688
-0.18569551 -0.18482825 0.190568 -0.18362263 0.18251215 0.18333507 -0.18107508 0.18559116
-0.18438768 -0.18310177 0.1859485 -0.16898331 -0.18983987 -0.18709432 0.18699512 -0.18681544
-0.1510229 0.18592952 0.18494283 0.18301325 -0.18752407 0.20705096 0.18777287 0.18719038
0.18498804 0.18397963 -0.18654895 -0.18724461 0.18891184 0.18724377 0.2266253 0.1866382
-0.18099956 -0.18582243 0.18654516 0.18983836 0.1922955 -0.17739913 0.18356666 -0.18858904
-0.18824735 -0.19039886 0.18916072 -0.18014362 0.18651171 -0.18691406 0.24828058 0.2014339
0.16841233 -0.18402585 0.17134741 -0.1820145 -0.19092293 -0.18555887 0.18477635 0.18516651
-0.18853171 0.1865587 0.08660424 0.19543746 -0.18630406 0.18753086 -0.1854459 0.17956185
-0.18591653 -0.18278645 -0.18758547 0.18776342 0.18319489 0.18882065 -0.19065912 0.19115351
0.18320109 -0.18584 -0.1919952 0.14423807 -0.185785 -0.18878587 0.18880264 -0.1816002
-0.18551756 -0.07692796 0.18334433 0.023200491 -0.18422633 -0.17727466 0.18099803 0.18565778
-0.18798906 -0.18288635 -0.18165742 0.18826166 0.18697213 -0.17969285 -0.15083931 -0.18593374
0.1850435 0.12037484 -0.18270823 0.23250084 -0.115996964 -0.18272495 0.18722598 0.020449126
0.16672407 -0.18576357 -0.19264847 -0.17706645 0.18551272 -0.19609341 -0.1841136 -0.18407267
-0.002765468 -0.18634729 0.16993105 0.1839183 0.18859513 0.18985896 0.18288267 0.14857574
0.18624227 -0.18912171 -0.18776228 0.16072576 0.18374246 0.18429472 -0.21880686 0.29268664
-0.14230497 0.18569106 -0.1864621 -0.18843366 0.1918593 -0.18549857 0.18467435 -0.18588303
0.1864465 0.18604368 0.18662608 -0.18692726 -0.1896684 -0.19216882 -0.18630621 -0.1891786
-0.18356112 0.18747278 0.24057385 -0.18768045 0.18781593 0.1886701 0.26272175 0.18736029
0.18490401 0.2079665 0.18789826 -0.1869277 0.19780391 -0.1789765 -0.19260786 -0.1800108
-0.18237445 -0.18382625 -0.18573225 -0.18370274 0.19601232 0.18652584 -0.18943956 -0.17546576
-0.1794292 -0.18732207 0.18433371 0.18003884 -0.18829288 -0.18641047 -0.22876994 -0.18716317
-0.18550892 0.18914022 -0.18550545 0.049330395 -0.18588062 -0.18581706 0.15367311 0.1868841
-0.17977254 0.18336536 0.18586758 0.17581561 0.18805248 0.18530464 -0.18181281 0.18651506
0.18649952 -0.17326431 0.18568878 0.18004042 -0.18428515 -0.1857363 0.18430762 0.18904924
0.18725036 -0.18733405 -0.18408433 0.18518548 -0.18652143 -0.18543163 0.1607449 0.18772559
0.18543196 0.18602037 -0.18538284 -0.1862563 0.17218672 0.20896612 -0.18757863 0.18348911
-0.18686813 -0.18664916 -0.18803658 0.18149601 0.18321261 0.18288632 0.20532598 -0.16665424
-0.18478678 -0.18313448 0.18539979 0.18759468 -0.26675904 0.18538147 -0.18635295 0.18849167
-0.18847941 -0.18791702 0.18749076 -0.16331308 -0.18499383 -0.18530132 0.18697327 -0.18654577
