TSV_llama3.1-8B_tqa/exemplar_num_32_num_selected_data_128/loss_repulsion/res/15/5/saved_vectors/tsv_layer_15.npy (npy, 16512 bytes, 1 tensors)

array f4 [4096]
0.045241516 -0.03181515 -0.09090287 -0.06026076 -0.01810194 0.04263504 0.0095172515 0.038721394
0.032603826 0.021333748 0.021838637 0.08154471 -0.010368642 -0.0665292 0.024259077 -0.09809205
0.045347143 -0.059302866 0.048535638 -0.007983818 -0.049599163 -0.019940697 -0.038802434 0.045447968
0.07515785 -0.10194475 0.015566133 0.08825404 0.0063095926 -0.0045151045 0.010593938 -0.04522874
0.061788943 0.007106492 0.007245203 0.016563473 -0.0466561 -0.064900756 0.015579915 0.0432348
0.008038715 0.07182806 -0.059054907 -0.088390745 0.014932224 -0.037739974 -0.03804012 0.019571058
-0.03295987 0.042660225 0.09434636 -0.03545593 -0.065403804 -0.0060498877 0.05708233 -0.03907808
0.023346854 0.012699326 -0.0012665545 -0.010916969 0.032888066 -0.020265076 -0.016001735 0.001573954
-0.014021401 -0.05525313 0.03645314 -0.12004478 0.017238716 -0.05309468 -0.021329418 -0.0060655647
0.041476775 0.014516214 -0.04826766 0.022867775 -0.006490056 -0.042802777 -0.05166233 0.05134782
0.08416527 -0.04262374 -0.018085314 -0.069831595 0.01819651 0.043967385 -0.02684856 -0.030449957
-0.053744316 0.059504356 -0.04752431 0.018257692 -0.043056455 0.027490204 0.021115014 -0.027488211
0.022789301 0.08499697 -0.007752207 0.060624145 0.06988777 -0.044194546 -0.06869629 -0.03567541
-0.019732328 0.032642737 -0.031392578 -0.041558117 -0.058547817 0.09765641 -0.032920953 -0.01679848
0.047574546 0.069252856 0.004600246 0.00480517 0.029214023 0.055296138 -0.005549152 -0.0102323415
0.060772184 -0.09326347 -0.06313675 -0.045253176 0.082687296 0.107694745 0.0343406 0.018453345
-0.020859456 -0.02113277 0.07463237 -0.05673426 0.078819044 0.038347308 -0.05279973 -0.031953927
0.017807418 -0.02422239 -0.01495328 0.0410342 0.0042454037 -0.0050336844 0.060125157 -0.0145660825
-0.018754676 0.029348582 0.0019547802 -0.045537956 -0.029490974 0.004790924 0.063121736 0.06739697
0.06968439 0.016225243 0.033766467 -0.004225126 0.03470294 -0.017410051 -0.064780794 0.030398263
0.0051441095 -0.008241536 0.019815937 -0.0030112406 -0.021040926 -0.037969496 0.010729768 0.012229549
-0.015689453 -0.045754578 0.023554951 0.05946283 -0.016514381 -0.00135009 0.028115192 0.041161798
0.044871252 0.055617385 -0.026052337 -0.03765681 -0.018563876 0.07284021 0.03289889 0.053564083
-0.038853984 -0.028050622 -0.037258543 -0.0036836585 -0.011659932 -0.0466014 0.009239834 0.06990763
0.029614659 -0.10069289 -0.010230122 -0.0055299196 0.01774982 0.0049083782 -0.033647433 0.060360454
0.00282245 0.0045578773 0.0014678674 -0.050607353 0.02249935 0.026687521 0.047700748 -0.0067322664
0.027130462 0.025092755 0.008341862 0.012574384 -0.039126378 -0.027744574 -0.027683087 -0.047200497
-0.05096454 0.0315444 -0.052372105 0.08600085 -0.038951 -0.006417988 0.027792348 0.0067671062
-0.015715333 0.022324031 0.05054356 -0.0718665 -0.04233941 -0.03899018 0.043667927 -0.04812478
-0.05280713 0.0044095004 0.059147157 -0.033007972 -0.049479347 0.031472016 -0.009683265 0.043251198
0.10730178 0.015208127 -0.019860705 -0.03570744 0.0013413359 0.018913105 -0.075528756 0.060362265
0.0053686546 -0.08780631 0.07772476 0.020280238 -0.048356235 0.12739737 -0.03270171 0.008771647
00000000: 2b4f 393d 9a50 02bd 492b babd fdd3 76bd
00000010: 854a 94bc 14a2 2e3d 3fee 1b3c 539a 1e3d
00000020: 978b 053d 1dc4 ae3c f1e6 b23c ea00 a73d
00000030: 3de1 29bc 7640 88bd f9ba c63c 7ce4 c8bd
00000040: edbd 393d 90e7 72bd 4ecd 463d 8fce 02bc
00000050: 7e28 4bbd ac5a a3bc 4def 1ebd a627 3a3d
00000060: 5cec 993d 69c8 d0bd 1809 7f3c 89be b43d
00000070: b3c0 ce3b 71f3 93bb 3292 2d3c c541 39bd
00000080: 6716 7d3d 93dd e83b 2b69 ed3b 1fb0 873c
00000090: 771a 3fbd b0ea 84bd e642 7f3c f916 313d
000000a0: d1b4 033c 971a 933d 8fe3 71bd 3506 b5bd
000000b0: 49a6 743c 3b95 1abd f5cf 1bbd 7c53 a03c
000000c0: ee00 07bd 7dbc 2e3d aa38 c13d 3d3a 11bd
000000d0: 6ef2 85bd 233e c6bb 29cf 693d 5610 20bd
000000e0: e741 bf3c d510 503c 8402 a6ba 16dd 32bc
000000f0: a3b5 063d f202 a6bc 1216 83bc 224d ce3a
00000100: 05ba 65bc 1b51 62bd e34f 153d 0ada f5bd
00000110: 3538 8d3c cf79 59bd 08bb aebc a5c1 c6bb
00000120: 8de3 293d 6ad5 6d3c 4fb4 45bd 3355 bb3c
00000130: 89aa d4bb f751 2fbd e19b 53bd 1752 523d
00000140: d75e ac3d 3b96 2ebd a727 94bc de03 8fbd
00000150: d910 953c 2517 343d 83f1 dbbc 3072 f9bc
00000160: 0023 5cbd d7ba 733d daa8 42bd 2891 953c
00000170: f75b 30bd 2333 e13c 65f9 ac3c f52e e1bc
00000180: a1b0 ba3c e412 ae3d 3a06 febb 0651 783d
00000190: 5221 8f3d 5705 35bd a4b0 8cbd 6120 12bd
000001a0: b1a5 a1bc 64b4 053d 8195 00bd d838 2abd
000001b0: d6cf 6fbd 1500 c83d 1fd8 06bd f79c 89bc
000001c0: 87dd 423d 71d4 8d3d a9bd 963b b074 9d3b
000001d0: 3f52 ef3c 347e 623d a9d5 b5bb 8da5 27bc
000001e0: 41ec 783d eb00 bfbd d74d 81bd 655b 39bd
000001f0: f557 a93d 108f dc3d bba8 0c3d 782b 973c
00000200: 73e1 aabc a21e adbc dbd8 983d 2f62 68bd
00000210: e16b a13d 1112 1d3d 8844 58bd 1fe2 02bd
00000220: dde0 913c 096e c6bc 9afe 74bc 7a13 283d
00000230: 071d 8b3b 9bf1 a4bb cc45 763d 94a6 6ebc
00000240: 68a3 99bc 706c f03c c51b 003b 0286 3abd
00000250: 0e97 f1bc 2ffd 9c3b f845 813d 6c07 8a3d
00000260: b1b6 8e3d cdea 843c b54e 0a3d ed72 8abb
00000270: ac24 0e3d 869f 8ebc cbab 84bd c705 f93c
00000280: eb8f a83b 8207 07bc 0855 a23c 3c58 45bb
00000290: 055e acbc e785 1bbd e9cb 2f3c 725e 483c
000002a0: 2b87 80bc 2769 3bbd 50f6 c03c 4c8f 733d
000002b0: 2b49 87bc 81f5 b0ba d551 e63c 4699 283d
000002c0: ebca 373d 0ecf 633d b66b d5bc 073e 1abd
000002d0: 4513 98bc 3f2d 953d fdc0 063d 0366 5b3d
000002e0: 5b25 1fbd 6bca e5bc 6a9c 18bd 8969 71bb
000002f0: 4d09 3fbc 1ce1 3ebd ac62 173c bb2b 8f3d
00000300: 719a f23c 1338 cebd 3e9c 27bc 5434 b5bb
00000310: 1268 913c 76d6 a03b e4d1 09bd 863c 773d
00000320: daf8 383b 3f5a 953b 7565 c03a a849 4fbd
00000330: 8f50 b83c ca9f da3c dc61 433d 589a dcbb
00000340: b440 de3c 528f cd3c 4eac 083c ca04 4e3c
00000350: fb42 20bd 9748 e3bc a4c7 e2bc 4f55 41bd
00000360: 32c0 50bd b334 013d 2284 56bd 3721 b03d
00000370: 158b 1fbd fc4d d2bb c7ac e33c 9abe dd3b
00000380: 71bd 80bc e3e0 b63c c406 4f3d be2e 93bd
00000390: 176c 2dbd 2bb4 1fbd 24dd 323d 7d1e 45bd
000003a0: 4a4c 58bd 927d 903b 4a44 723d 5e33 07bd
000003b0: dbaa 4abd cde8 003d 8fa6 1ebc 2b28 313d
000003c0: 09c1 db3d 822b 793c ebb2 a2bc f741 12bd
000003d0: c4cf af3a a8ef 9a3c d2ae 9abd 6c3e 773d
000003e0: 8aeb af3b cbd3 b3bd 292e 9f3d be22 a63c
000003f0: 3011 46bd 7574 023e 3af2 05bd f4b6 0f3c
