TSV_llama3.1-8B_tqa/exemplar_num_32_num_selected_data_128/loss_repulsion/res/15/5/saved_vectors/tsv_layer_15.npy (npy, 16512 bytes, 1 tensors)

array f4 [4096]
000000 64 d1 36 3d bf a2 23 bd 46 3e ae bd d6 0b 54 bd
       0.044633284 -0.03995013 -0.085079715 -0.0517691
000010 a7 9b 68 bc 57 d7 37 3d 03 6f 44 3c df 24 f3 3c
       -0.014197267 0.0448831 0.011989358 0.029680667
000020 48 50 05 3d 97 ee bf 3c cc 29 c6 3c 29 96 a6 3d
       0.032547265 0.023429198 0.024189852 0.081341095
000030 45 0b 20 bc 32 a5 92 bd 4b 09 e6 3c 44 15 cc bd
       -0.009768312 -0.07160415 0.028080603 -0.099649936
000040 d3 8e 21 3d fd d6 57 bd 5e 7c 3a 3d 68 24 57 bc
       0.03944285 -0.052695263 0.045528762 -0.0131312385
000050 e7 be 3a bd 12 82 a4 bc 8d e4 1e bd b0 d5 41 3d
       -0.045592215 -0.020081554 -0.03879218 0.04732293
000060 d1 37 8f 3d c1 d5 d1 bd 42 e7 0e 3c 17 12 b9 3d
       0.06993068 -0.102458484 0.008722128 0.090366535
000070 6b e6 d1 3b 91 12 5f bc 36 e5 85 3c 48 b6 32 bd
       0.006405642 -0.013615266 0.016344648 -0.04363087
000080 8a bf 79 3d c6 c7 3d 3b ab c1 34 3c 0b c9 98 3c
       0.06097368 0.0028958186 0.011032502 0.018650552
000090 a7 e3 3e bd 8b c7 7f bd 7d f8 87 3c cd a5 22 3d
       -0.046603825 -0.06244616 0.01659798 0.0397089
0000a0 31 42 f9 3b e1 93 92 3d 58 dc 53 bd 54 04 bd bd
       0.0076067676 0.07157112 -0.051723808 -0.09229341
0000b0 e9 4b 32 3c d7 95 f4 bc 41 b9 03 bd 76 15 c3 3c
       0.010882356 -0.029856605 -0.032159094 0.023813944
0000c0 a6 2a 36 bd 30 63 26 3d 23 a1 bb 3d 42 a1 f5 bc
       -0.044474266 0.040621936 0.09161594 -0.02998412
0000d0 40 18 79 bd 9f a8 95 bb b5 9e 6d 3d b5 e4 45 bd
       -0.060814142 -0.0045672203 0.058012683 -0.048313815
0000e0 fe c5 f0 3c 75 7e 83 3c 49 42 e5 bb 64 9e 0e 3c
       0.029391285 0.01605151 -0.006996427 0.008704755
0000f0 b3 ee 12 3d 44 5e 62 bc 28 ff 85 bc 4b 1d 96 b9
       0.035872173 -0.01381642 -0.01635702 -0.00028632054
000100 ed 6c 5a bc 1b 7f 6f bd 64 a5 1b 3d b7 7d f1 bd
       -0.013331634 -0.058470827 0.037999526 -0.11791556
000110 f4 bf 41 3c 40 1f 5f bd 51 ec bb bc 36 01 c8 bb
       0.01182555 -0.05447316 -0.022939833 -0.00610366
000120 06 db 13 3d ba fd 8f 3c 8a 27 44 bd bd 99 af 3c
       0.03609755 0.017577041 -0.04788927 0.021435613
000130 ff 1a 13 3b 51 62 35 bd 3c 80 5c bd 7f 39 38 3d
       0.002244651 -0.044283215 -0.05383323 0.044976708
000140 06 20 ad 3d 83 81 2d bd 26 dd 50 bc 65 72 8f bd
       0.084533736 -0.04235984 -0.012748038 -0.07004241
000150 0d cd ad 3c 2f 50 1b 3d a6 0b e1 bc 86 49 0b bd
       0.02121594 0.037918266 -0.027471375 -0.034005664
000160 c2 9b 62 bd 04 e9 6d 3d d8 49 48 bd 7a 04 7b 3c
       -0.055324323 0.05808355 -0.048898548 0.0153208915
000170 d1 e0 12 bd f8 31 00 3d 5b 59 b4 3c 49 6a 9e bc
       -0.035858933 0.031297654 0.022015264 -0.01933779
000180 c5 c6 ce 3c 1f 62 b5 3d 37 65 af 39 65 db 57 3d
       0.025241265 0.08856606 0.00033454012 0.052699465
000190 e2 59 92 3d a2 80 1a bd bf d2 82 bd f5 6f 36 bd
       0.0714605 -0.03772033 -0.06387853 -0.044540364
0001a0 aa 48 82 bc 6b 84 07 3d 53 cc 06 bd 1c e7 15 bd
       -0.01590379 0.033085268 -0.032909703 -0.036597356
0001b0 ee cf 6f bd 20 ca d0 3d 8a eb f9 bc 63 93 6c bc
       -0.058547907 0.10194802 -0.030507822 -0.014439437
0001c0 ea 3a 3d 3d 81 59 92 3d be e6 9a 39 7a 6c 69 3c
       0.046198763 0.07145978 0.00029545085 0.014247054
0001d0 02 02 00 3d 64 96 66 3d 57 59 2c bc 44 35 b1 bc
       0.031251915 0.056295767 -0.010519347 -0.021631844
0001e0 40 7d 8c 3d f5 c0 af bd db e7 8d bd fe 6b 45 bd
       0.06859827 -0.085817255 -0.069289885 -0.048198693
0001f0 1e af ae 3d 3a ed cf 3d bc 7a 07 3d fc 9e ab 3c
       0.08529495 0.10152669 0.033076033 0.020949833
000200 b0 1b a3 bc b5 bc a1 bc b0 cd 9e 3d 84 b8 73 bd
       -0.019910663 -0.019743303 0.077540755 -0.05950214
000210 b7 50 a3 3d a1 5b 21 3d be 21 46 bd 03 d5 d3 bc
       0.079743795 0.039394025 -0.048372023 -0.025858408
000220 27 53 c8 3c 36 33 b1 bc a9 35 ec bb cc 81 2c 3d
       0.024453713 -0.021630865 -0.007208545 0.04211597
000230 b8 9d 09 3b 34 9c cd 3a e6 a3 7e 3d f3 e5 e2 bb
       0.0020998549 0.0015686811 0.062168024 -0.0069243847
000240 17 e0 84 bc 1b a4 04 3d a3 42 96 3a 68 83 29 bd
       -0.016220136 0.032383066 0.0011463951 -0.041385084
000250 61 ed 08 bd 58 ff ed 3b 65 cb 84 3d 33 76 88 3d
       -0.033429507 0.0072631054 0.06484107 0.0666317
000260 f6 8d 92 3d 4e bd be 3c ba 86 03 3d 4a 24 8a bb
       0.07155983 0.023283627 0.032110907 -0.004215752
000270 49 1b 0d 3d 52 1a 9e bc 81 9f 7d bd 33 f8 b3 3c
       0.03444985 -0.01929966 -0.061919693 0.021968937
000280 73 24 94 3a ae 89 26 bb ba d5 05 3c 78 03 af bb
       0.0011302367 -0.0025411653 0.008168632 -0.0053409897
000290 7d 59 93 bc c8 b3 05 bd 48 73 64 bb 5c ef c1 3b
       -0.017987007 -0.032642156 -0.0034858752 0.0059184264
0002a0 37 0b 35 bc 6b 78 2d bd 3f 7b dd 3c d1 a1 5c 3d
       -0.011050037 -0.042351168 0.027036307 0.053865258
0002b0 8b 42 97 bc 5c c4 be 3a b5 4b f6 3c 5e bf 35 3d
       -0.018464347 0.0014554369 0.030065397 0.044371955
0002c0 b3 eb 29 3d 34 e7 69 3d 8e 14 bb bc 15 8f 0a bd
       0.041484546 0.057105258 -0.02283695 -0.03382786
0002d0 88 e3 a9 bc 9e ed 94 3d 86 bb 08 3d 04 d0 4c 3d
       -0.020738378 0.072718844 0.03338196 0.050003067
0002e0 ca 45 dd bc 07 14 ee bc 6d e6 15 bd 58 f1 77 bb
       -0.027010817 -0.029062284 -0.036596704 -0.003783306
0002f0 c0 fe a4 3a 1b 1c 53 bd 39 08 77 3c 80 43 92 3d
       0.0012588128 -0.051540475 0.015077644 0.07141781
000300 69 8f e4 3c 33 e9 c8 bd a2 d4 c8 bc 58 b4 09 bc
       0.027900415 -0.09810104 -0.024515454 -0.008404814
000310 f7 07 5e 3c 98 1a 80 3b 64 ea 25 bd 00 46 83 3d
       0.013551704 0.00390942 -0.040506735 0.06409836
000320 cd 5e 93 bb a9 07 2e 3c 86 b7 b6 3b b6 e5 3e bd
       -0.004497385 0.0106219435 0.005576077 -0.04660579
000330 9f f4 85 3c e0 20 fc 3c 28 69 5a 3d c5 a2 ae bb
       0.016351996 0.030777395 0.05332294 -0.0053294622
000340 a3 8b a8 3c 6e 50 02 3d fa 32 1d 3c e7 50 4d 3c
       0.020574396 0.031814985 0.009594673 0.012531496
000350 9c 2a 2d bd 7e 2f e4 bc ae 81 e5 bc fc 75 44 bd
       -0.042276964 -0.027854677 -0.028015938 -0.04796408
000360 a5 f8 40 bd ea e2 0b 3d d5 9e 5c bd 80 dc a4 3d
       -0.047112126 0.03415195 -0.05386241 0.080498695
000370 e6 a9 02 bd a6 2a 7e bb 38 88 d1 3c f4 04 b0 bb
       -0.03190031 -0.0038782745 0.02557765 -0.005371684
000380 fe 5d 60 bc 59 c4 d3 3c d9 de 4c 3d af c8 88 bd
       -0.0136942845 0.025850462 0.05001721 -0.06678902
000390 f9 0a 21 bd 35 4d 02 bd a2 32 2b 3d 0c 7d 4d bd
       -0.039317105 -0.03181191 0.041796334 -0.050168082
0003a0 78 b2 4c bd c1 e9 c7 3b a5 c2 6c 3d 4e 02 02 bd
       -0.04997489 0.0061008637 0.057802815 -0.03174048
0003b0 7a 4e 36 bd 00 51 06 3d c5 90 e3 bb 72 c1 4a 3d
       -0.044508435 0.03279209 -0.006944748 0.04950089
0003c0 18 7f d5 3d a8 55 66 3c 4c 84 cb bc f0 a6 10 bd
       0.10424632 0.014058508 -0.024843358 -0.035315454
0003d0 91 a7 fa 3a 6e b1 8d 3c 4d 07 8c bd 87 e7 85 3d
       0.0019123425 0.01729652 -0.0683733 0.06538301
0003e0 f1 65 5c 3c e4 5d b5 bd 5c e6 95 3d cf 60 05 3c
       0.013452039 -0.08855799 0.07319328 0.008140757
0003f0 68 4a 54 bd f7 44 05 3e 35 16 0d bd a2 bd 19 3c
       -0.05182877 0.13014589 -0.034445006 0.009383591
