TSV_qwen2.5-7B_tqa/exemplar_num_32_num_selected_data_128/loss_repulsion/res/5/5/saved_vectors/tsv_layer_5.npy (npy, 14464 bytes, 1 tensors)

array f4 [3584]
0	0x3dd91787	0.106001906
1	0x3d3b21e8	0.045686632
2	0xbdcef730	-0.10105741
3	0xbd6c7f22	-0.05773843
4	0xbdf730e8	-0.12069875
5	0x3d4527ed	0.04813378
6	0x3df6ef4f	0.12057363
7	0x3d963bcb	0.07335623
8	0x3e0c8efb	0.13726418
9	0x3df4faf7	0.1196193
10	0xbd01400f	-0.03155523
11	0xbe2d8030	-0.16943431
12	0xbd03eee0	-0.03221023
13	0xbda8260e	-0.08210383
14	0x3cbaa54b	0.022783896
15	0xbda69145	-0.08133177
16	0x3d3e037e	0.04639005
17	0xbd5093cb	-0.050922196
18	0xbca626f8	-0.020282254
19	0x3db23e58	0.087032974
20	0xbdbacfb4	-0.091216475
21	0xbcc64307	-0.024201883
22	0xbd9108df	-0.0708177
23	0x3d7621b3	0.06009073
24	0xbcefe7ac	-0.029285274
25	0xbc58b5f1	-0.013226972
26	0x3df8e464	0.12152937
27	0x3d4603d8	0.04834351
28	0xbd805305	-0.06265835
29	0xbd1ab0b3	-0.03776617
30	0xbd910483	-0.07080939
31	0xbdcbf233	-0.09958305
32	0x3dd79f58	0.10528439
33	0xbdf23c8a	-0.11827953
34	0x3dc5f31d	0.09665511
35	0xbbe268f4	-0.006909484
36	0x3da47250	0.08029616
37	0xbdf555fa	-0.11979289
38	0x3b0d38e2	0.0021548797
39	0x3d41f544	0.047353044
40	0xbcc23689	-0.023707645
41	0x3dd15f78	0.10223287
42	0xbd3e365c	-0.04643856
43	0x3dbdbca9	0.092645
44	0xbd1f940a	-0.03895954
45	0xbcc2efbf	-0.02379596
46	0x3e3e0732	0.18557432
47	0x3c505451	0.012715415
48	0xbce7bf56	-0.028289478
49	0xbe4b5d41	-0.19859792
50	0xbd3b558e	-0.04573589
51	0xbd2e638d	-0.042575408
52	0xbdabcaea	-0.08388312
53	0x3d94279a	0.07234116
54	0xbda5a19c	-0.08087465
55	0xbe0d6970	-0.13809752
56	0xbdcadf20	-0.09905839
57	0x3dd7984f	0.105270974
58	0x3da6195d	0.081103064
59	0xbd6234d2	-0.055226155
60	0xbc2b8043	-0.010467592
61	0x3cf7c84c	0.030246876
62	0xbd6a843d	-0.05725502
63	0x3b9b5b8e	0.004741139
64	0x3cea4c95	0.02860097
65	0x3d8f2327	0.06989127
66	0x3df0f661	0.11765743
67	0x3d23b133	0.039963912
68	0xbca57b01	-0.020200254
69	0x3a337fb9	0.000684734
70	0xbd369347	-0.04457405
71	0x3d7de19b	0.061982732
72	0x3d276882	0.04087115
73	0xbe07f175	-0.13275702
74	0x3cbbfeab	0.022948584
75	0x3d42d121	0.047562722
76	0x3df2d844	0.11857656
77	0x3dee6576	0.11640446
78	0x3d0c6278	0.034273595
79	0x3da14631	0.07874716
80	0x3c93d5b0	0.01804623
81	0xbb95cc08	-0.0045714416
82	0x3b36f72b	0.002791832
83	0x3e18c094	0.14917213
84	0x3d5c25bd	0.053746928
85	0x3e0cd73b	0.13753979
86	0x3cca0a0f	0.024663
87	0x3c9e3a93	0.01931504
88	0x3d557382	0.05211211
89	0x3e1064af	0.14100908
90	0xbd482aa4	-0.04886879
91	0xbd7264a8	-0.059178025
92	0xbd6bdefc	-0.0575857
93	0xbd47fc67	-0.048824694
94	0x3d8d9370	0.06912887
95	0x3d810eda	0.06301661
96	0xbd59af74	-0.05314584
97	0x3d07f29f	0.033190366
98	0xbd09bad7	-0.03362545
99	0x3c9fedd9	0.019522594
100	0x3c935c36	0.017988306
101	0x3d8fa01d	0.07012961
102	0x3d62dc6a	0.055385984
103	0xbbf5c084	-0.0074997563
104	0x3d1c08a8	0.038094193
105	0xbdc425a7	-0.09577494
106	0x3d4c1e90	0.049833834
107	0xbd62b1e1	-0.05534542
108	0x3da07cf0	0.0783633
109	0xbdda8f6c	-0.10671887
110	0x3da99f9f	0.082823984
111	0xbd87a43e	-0.066231236
112	0xbd30eddb	-0.043195587
113	0x3cac6374	0.021043517
114	0xbd8c97bf	-0.06864881
115	0xbc5230be	-0.012829004
116	0xbddfcb76	-0.10927479
117	0x3d326da1	0.04356158
118	0x3d816275	0.06317607
119	0xbde40095	-0.111329235
120	0xbd89a110	-0.06720173
121	0x3dfe26d0	0.12409747
122	0xbdba1cfb	-0.09087559
123	0xbdbb2f1a	-0.09139843
124	0x3d483e74	0.048887685
125	0xbcd9a3e7	-0.026567413
126	0xbdbf33ef	-0.093360774
127	0x3c85b907	0.01632358
128	0x3d4fe8f0	0.050759256
129	0x3dac51fc	0.08414075
130	0x3e1d6975	0.1537226
131	0xbce90a2f	-0.028447239
132	0xbe0b6ccb	-0.1361572
133	0x3da0eece	0.078580484
134	0x3d910b0a	0.07082184
135	0xbd308c94	-0.043102816
136	0x3a4310f2	0.0007441185
137	0x3c1b3dcc	0.009475183
138	0xbe10d24a	-0.14142719
139	0x3d67e94b	0.05661897
140	0xbdc12047	-0.094299845
141	0xbc0bf256	-0.008541664
142	0x3d96ab31	0.07356871
143	0x3e0e5bf7	0.1390227
144	0x3e167609	0.14693464
145	0x3da55573	0.08072939
146	0xbda77737	-0.08177035
147	0x3ce441d3	0.027863419
148	0xbd13a29d	-0.036043752
149	0x3de707bb	0.11280771
150	0xbda49de8	-0.08037931
151	0x3d01c563	0.031682383
152	0x3d0b975f	0.034079906
153	0x3d1b09f1	0.037851278
154	0xbcfe6e45	-0.03105844
155	0x3d1303b2	0.035892196
156	0xbafcc91d	-0.0019286011
157	0xbd37f111	-0.044907633
158	0xbdaeeb8d	-0.085410215
159	0xbb05a172	-0.0020390418
160	0xbddece44	-0.10879186
161	0x3db49737	0.088179044
162	0xbdac553c	-0.08414695
163	0x3da0dce2	0.0785463
164	0x3d6ead8b	0.058270972
165	0xbdb1e198	-0.08685607
166	0x3e18341e	0.14863631
167	0xbd4a6562	-0.049413092
168	0xbd85449f	-0.06507229
169	0xbda1e79c	-0.07905504
170	0xbd858869	-0.06520159
171	0xbac956c7	-0.0015360945
172	0x3dcef81e	0.10105918
173	0x3ca53861	0.020168485
174	0xbdbcc16e	-0.09216581
175	0xbdde6815	-0.10859696
176	0xbc8f107a	-0.017463911
177	0x3debf2b9	0.11520905
178	0xbdd8cc57	-0.1058585
179	0x3ce3e653	0.027819788
180	0xbd3bfabe	-0.045893423
181	0x3d3fa060	0.046783805
182	0xbca26f76	-0.01982854
183	0x3d8c646e	0.06855093
184	0x3c9c621f	0.019089757
185	0x3dd24f98	0.102690876
186	0xbda1c18f	-0.078982465
187	0x3db661cc	0.08905372
188	0xbd331be1	-0.04372776
189	0xbd7a32c5	-0.061083574
190	0xbd3b9e0e	-0.04580503
191	0xbdab66ac	-0.083691925
192	0x3c00ee2e	0.007869286
193	0x3c7b44cf	0.0153362295
194	0xbd61a0f7	-0.05508515
195	0xbc6cf855	-0.014463504
196	0xbe16ec63	-0.14738612
197	0xbc461001	-0.012088777
198	0x3d88f8ba	0.06688066
199	0x3cdbec16	0.026845973
200	0xbca9b909	-0.020718114
201	0x3dce5393	0.10074534
202	0xbd1a5a83	-0.037683975
203	0xbd8940ce	-0.06701814
204	0xbb34e166	-0.0027600168
205	0x3e06c265	0.13160093
206	0xbd8c6883	-0.068558715
207	0x3da83a1c	0.082142085
208	0x3dc60afe	0.09670065
209	0xbdc658f8	-0.09684938
210	0x3df2c8eb	0.11854728
211	0x3bb0db4b	0.0053972355
212	0x3db4f27f	0.08835315
213	0x3d7d5e88	0.06185773
214	0xbd4ed3f2	-0.050495096
215	0xbcec6cea	-0.028860528
216	0xbe077dc5	-0.13231571
217	0x3cc6be43	0.024260646
218	0x3c2c2a5b	0.010508145
219	0xbdc4e0a9	-0.09613163
220	0xbd8b1fe5	-0.06793193
221	0xbdc497ae	-0.09599243
222	0x3d528977	0.051400628
223	0xbcc3b8eb	-0.023891887
224	0x3cbcf52d	0.023066128
225	0x3cec1ec5	0.028823266
226	0x3d186db3	0.037213992
227	0xbda25f88	-0.079283774
228	0x3dc1c461	0.094612844
229	0x3d9744e7	0.07386189
230	0x3caa4e60	0.020789325
231	0xbe2878ac	-0.16452283
232	0x3e1d1659	0.15340556
233	0x3c0c1d6f	0.008551939
234	0xbe0c2abe	-0.1368818
235	0xbdfbe3fe	-0.122993454
236	0x3d70d49c	0.05879651
237	0x3de6ac40	0.11263323
238	0xbdf77fc9	-0.1208492
239	0xbe1251e9	-0.14289059
240	0x3d88c8c0	0.06678915
241	0x3cc484ad	0.023989046
242	0xbcbb40ef	-0.022858111
243	0x3d2ad888	0.041710407
244	0x3cfd2214	0.030900039
245	0x3d035d4f	0.032071408
246	0xbc096e5c	-0.008388128
247	0xbc8f66a6	-0.017505001
248	0xbd87ad94	-0.06624904
249	0xbdd263b5	-0.10272924
250	0xbd936d44	-0.07198575
251	0x39124b31	0.00013951656
252	0xbcb688e1	-0.022282066
253	0xbc6c6235	-0.014427711
254	0x3dd3c11d	0.10339568
255	0xbd4aa037	-0.0494692
