mitigation/tsv_info/qwen/layer_9/tsv_layer_9.npy (npy, 14464 bytes, 1 tensors)

array f4 [3584]
-0.085496426 0.09269156 -0.15668745 -0.14888363 -0.0094916 0.10519434 -0.06857155 0.039281722
0.09155761 0.11414802 -0.16673772 -0.1496809 -0.020061187 -0.17851919 0.022629354 -0.05896301
0.1651607 0.001996888 -0.120963894 0.18102008 0.15788949 0.10533615 0.09640483 -0.065671615
-0.016677918 0.04525221 0.065593556 0.15225299 -0.15956758 -0.09253998 0.019063592 0.022118684
0.19867468 -0.096733145 0.09158973 -0.08110371 -0.021315534 -0.04100839 -0.0059660645 0.031005004
0.1420777 -0.07155437 0.010754242 0.13299099 0.039092787 -0.08201198 0.20234896 0.090800464
-0.0357848 -0.031596504 0.04179704 0.060633264 -0.08683259 0.018325998 -0.062318724 0.029083777
0.1277889 -0.06349697 0.00097475684 0.04121976 -0.036251474 0.073704496 -0.03734768 -0.021860357
0.09263446 -0.02916804 -0.0035818503 -0.02599629 -0.17382805 0.06343767 0.012626413 -0.044408362
0.053726368 0.019970322 0.026588153 -0.098960206 0.00634334 -0.04029208 0.10135363 0.037560135
0.16591647 0.009692323 -0.026959931 0.18095118 -0.09274127 0.19757941 0.00870763 -0.053927578
0.11565839 0.103164 -0.064046785 0.12424094 0.008307092 -0.11205358 0.025082104 -0.012834542
-0.07166211 0.08858128 0.02074887 0.086831704 -0.08472009 -0.011635549 -0.037133936 0.14391175
0.018380208 0.08190197 0.1395438 -0.012876999 -0.035837807 -0.13556428 0.023269417 -0.09569544
-0.09377592 -0.08227592 -0.10552303 0.116292395 0.0028285554 0.017419647 0.0685559 -0.14457974
-0.104293495 0.015061629 0.06744806 0.0038155364 -0.016728237 0.09518489 -0.037614405 -0.09340058
-0.1124074 0.06670687 0.2242025 0.053245924 -0.037110053 0.11474647 0.16840144 0.07841752
-0.005585088 -0.12779593 -0.068877675 0.017410781 0.04390735 0.0318426 0.021622911 0.07034744
0.1973351 0.085678644 0.04727136 0.028356323 -0.0649379 0.07119014 -0.02745815 0.08861322
-0.06767351 0.029558094 -0.02232459 0.120945185 -0.040932763 -0.16789462 -0.037041873 -0.029185073
-0.17983234 0.03331765 -0.092021264 -0.030575275 -0.07792946 0.021243595 0.097271 -0.0424059
0.104135856 0.021473028 -0.027302189 -0.08070238 0.0018123803 -0.041872162 -0.10342689 0.05906682
0.05365807 0.029895375 -0.06933677 -0.06660893 0.03684075 0.043335844 0.06433541 -0.020963598
0.035331808 -0.12907536 0.044909496 0.008117768 -0.0015817443 0.026190972 0.04801651 -0.14576662
-0.0717385 -0.034053225 0.016646052 0.048082445 -0.158426 0.010272529 -0.029452043 0.023389226
-0.016069654 -0.034967504 0.058246735 -0.031692043 0.06577732 0.102775335 -0.070693985 0.1009583
0.07305508 0.0049722246 0.11260225 0.07711797 0.09166035 -0.07642191 0.061920047 -0.12377449
-0.09373609 0.03395314 0.032868374 -0.09388519 -0.0005117615 -0.047837086 -0.021861903 0.20852448
-0.005797157 -0.08106169 -0.1369917 -0.14338438 -0.013383415 -0.086608164 0.05306745 0.12242571
-0.059205096 -0.015566704 -0.00999029 0.086340964 0.14281866 -0.0140077565 -0.14688799 0.04711044
0.037736535 0.13924399 0.04095528 -0.06860248 -0.011327562 -0.017064212 -0.08741373 -0.05980505
-0.0854784 -0.081928395 0.13331288 -0.04969723 -0.0031694607 0.0012559778 0.011103538 0.023910627
00000000: c018 afbd 13d5 bd3d ad72 20be f374 18be
00000010: a882 1bbc 2170 d73d 3e6f 8cbd dfe5 203d
00000020: 8e82 bb3d 70c6 e93d 4bbd 2abe f345 19be
00000030: 5c57 a4bc bccd 36be 3261 b93c 3283 71bd
00000040: e31f 293e 39de 023b ebbb f7bd 545d 393e
00000050: c8ad 213e 7bba d73d e56f c53d d77e 86bd
00000060: 21a0 88bc 625a 393d ea55 863d 35e8 1b3e
00000070: af65 23be 9a85 bdbd 402b 9c3c 3e32 b53c
00000080: 6071 4b3e 071c c6bd 6593 bb3d b419 a6bd
00000090: ea9d aebc 6af8 27bd fa7e c3bb 35fe fd3c
000000a0: d17c 113e 198b 92bd 8f32 303c ca2e 083e
000000b0: c21f 203d e6f5 a7bd 9134 4f3e 98f5 b93d
000000c0: 1593 12bd 566b 01bd 5f33 2b3d 965a 783d
000000d0: 49d5 b1bd 6720 963c eb41 7fbd 1a41 ee3c
000000e0: 18db 023e b30a 82bd d386 7f3a 0dd6 283d
000000f0: 6d7c 14bd 62f2 963d e2f9 18bd 7e14 b3bc
00000100: 23b7 bd3d d0f1 eebc 7abd 6abb 2cf6 d4bc
00000110: fbff 31be 9ceb 813d 04df 4e3c 8be5 35bd
00000120: 2e10 5c3d cd98 a33c 66cf d93c a6ab cabd
00000130: cbdb cf3b 4f09 25bd 7e92 cf3d a8d8 193d
00000140: 02e6 293e 8dcc 1e3c 13db dcbc 444b 393e
00000150: 23ef bdbd 4252 4a3e 73aa 0e3c 2ae3 5cbd
00000160: 4ede ec3d a647 d33d f62a 83bd 0972 fe3d
00000170: 781a 083c 597c e5bd fc78 cd3c f947 52bc
00000180: 96c3 92bd 1a6a b53d 89f9 a93c d2d4 b13d
00000190: ba81 adbd 08a3 3ebc c119 18bd 9a5d 133e
000001a0: 1792 963c 38bc a73d 92e4 0e3e 0cfa 52bc
000001b0: aaca 12bd 5dd1 0abe 819f be3c f9fb c3bd
000001c0: 970d c0bd 4780 a8bd 751c d8bd b52a ee3d
000001d0: 495f 393b a6b3 8e3c 0967 8c3d b60c 14be
000001e0: d497 d5bd 0dc5 763c 3522 8a3d 140e 7a3b
000001f0: a809 89bc 4cf0 c23d 9011 1abd ce48 bfbd
00000200: da35 e6bd 9d9d 883d 5795 653e 6618 5a3d
00000210: b600 18bd 3200 eb3d 6d71 2c3e 5d99 a03d
00000220: 1d03 b7bb f0dc 02be bd0f 8dbd 0ea1 8e3c
00000230: 32d8 333d 636d 023d 8822 b13c 5212 903d
00000240: 3612 4a3e 4978 af3d 9d9f 413d 854b e83c
00000250: 29fe 84bd 23cc 913d eaef e0bc d97a b53d
00000260: 6998 8abd d123 f23c 0fe2 b6bc 1cb2 f73d
00000270: 1da9 27bd 91ec 2bbe 38b9 17bd 8915 efbc
00000280: f825 38be 1778 083d a575 bcbd 0079 fabc
00000290: 7b99 9fbd 0c07 ae3c 0536 c73d cfb1 2dbd
000002a0: 2e45 d53d 34e8 af3c d7a8 dfbc 4a47 a5bd
000002b0: 648d ed3a 2582 2bbd 7ad1 d3bd 0df0 713d
000002c0: 90c8 5b3d 25e7 f43c 7000 8ebd 436a 88bd
000002d0: 54e6 163d ed80 313d 49c2 833d dabb abbc
000002e0: 16b8 103d 552c 04be 05f3 373d 6300 053c
000002f0: 8852 cfba 738e d63c f6ac 443d d843 15be
00000300: a2eb 92bd 657b 0bbd 4d5d 883c 19f2 443d
00000310: 6d3a 22be 1c4e 283c 6945 f1bc c39a bf3c
00000320: 82a4 83bc 163a 0fbd 2194 6e3d 84cf 01bd
00000330: 42b6 863d e07b d23d 02c8 90bd 3ac3 ce3d
00000340: e79d 953d 0bee a23b 029c e63d 07f0 9d3d
00000350: 6cb8 bb3d 1783 9cbd e09f 7d3d 7b7d fdbd
00000360: b5f8 bfbd 7312 0b3d fda0 063d e146 c0bd
00000370: bc27 06ba d2f0 43bd bc17 b3bc 7187 553e
00000380: 14f6 bdbb ac03 a6bd 8d47 0cbe 5bd3 12be
00000390: 1c46 5bbc 9f5f b1bd 415d 593d 55ba fa3d
000003a0: 0b81 72bd 7d0b 7fbc 50ae 23bc 88d3 b03d
000003b0: 0e3f 123e ca80 65bc ce69 16be e0f6 403d
000003c0: a091 1a3d fa95 0e3e b9c0 273d 757f 8cbd
000003d0: 3d97 39bc 3fca 8bbc f805 b3bd 24f6 74bd
000003e0: 4d0f afbd 13ca a7bd 2c83 083e 538f 4bbd
000003f0: bab6 4fbb 9f9f a43a 9deb 353c 38e0 c33c
