mitigation/tsv_info/tsv_layer_31.npy (npy, 16512 bytes, 1 tensors)

array f4 [4096]
00000000: 6600 993c 2782 0bbd c2fa e7bc 6e46 c9bc
00000010: 935e c23c 7487 03bd b320 f1bd 0879 0dbd
00000020: d15a c3bc f311 563d 0490 51bc 9376 04bd
00000030: 1283 2ebd f344 d1bc db33 d4bc 4b76 e23c
00000040: 6f96 eebb 3ccb b33b 55e0 72bd 327d 463d
00000050: 6745 08bd 3fc3 eabc 53e3 023d 3ba1 0f3d
00000060: fdd7 bf3c 1021 463d ce97 eebd 442a ad3c
00000070: 3416 edbb 5fa3 d9bb 97ef 033d 1d83 69bd
00000080: 8bd1 d2bc e532 c0bd 83a0 ff3c a494 163d
00000090: f114 133c fa79 b5bc 101c d6bb 961b 313d
000000a0: aed4 e9bc ee5a 133b 5b4b bbbc b442 18bc
000000b0: 187d c5bd 399b 063d a829 5dbc c675 023e
000000c0: 7050 97bc 7595 34be db21 073d 70be 5f3c
000000d0: 8e89 f1bc e2c7 9dba 9ee9 583d 0975 bbbc
000000e0: 31f1 0cbd dbbf 1abd 860a 16bd 0c3b 05bd
000000f0: 9e1f 27bd d935 dc3c dbd4 84bc 32e8 c23c
00000100: 28f5 66ba 9c9e afbd 1eb9 113d 6779 bc3c
00000110: c9d8 e5bc 5825 5ebd 5074 c7bc fa5d 3a3c
00000120: 52bb 433d 4ee2 f33b 8cc5 043d 8e8f 34bd
00000130: f64b 8139 fe56 c6bc 6b65 e9bc 9b7c 3bbd
00000140: 3516 86bd b844 81bd c915 acbc 948a a1bc
00000150: b669 203d 7c51 e03c 5d34 19bc 443b 2abc
00000160: 219e 1fbe b5ee 563d 4500 5bbc a9c5 a43c
00000170: cf14 0ebd 64e5 b4bc cd1b 0e3d f073 1b3d
00000180: 0ab5 94bc d2d9 f03c c96e 2d3c d432 09bd
00000190: c91b 263d e25f ab3c 4fe3 733c bedb 153b
000001a0: 7940 c5bc c71b 443d 7a79 6c3d f796 a0bc
000001b0: 2fc7 b9bd 076a d43b a8cf 37bd ad67 94bd
000001c0: 8a7d ebbc c40a 4a3d 7094 c0bc 2f28 a93d
000001d0: 2436 303a eac8 24bd 34b3 df3d 9c67 f53c
000001e0: dc56 443a 93bd 19bd 5cfb 5f3c ad84 96ba
000001f0: 9410 623c 64e0 24bd 5d8b 023d deca 853c
00000200: 9140 b53c e7ef 133d 087a de3c a7d1 c0bc
00000210: 9143 033d bb65 9c3c 3ccd 793a 804e 03bd
00000220: 3d40 cb3a 5bb3 08be 6046 8cbc b697 cd3c
00000230: f9ff 61bd 576a 673c bf39 943d bf3a 0ebd
00000240: 995b cabc 9d6e 083d cd1c 223c cb1c 113d
00000250: d366 573c 925b 6ebd 81bd 1e3d 833a a53c
00000260: 97ac 333d 85cc 97bc b446 c93c c8c3 e13c
00000270: e3cf bdbc ce8c 22bc 1f1c cdbc 5c45 f1bd
00000280: 4267 42bd 8388 b7bd be88 41bd 55a8 003d
00000290: 9610 9abc 9748 623d c518 853c 2d33 bc3c
000002a0: f755 eabc b6df 033d 8db1 933c eb17 c93c
000002b0: 043b d9bc 32d2 173d fa35 613c e64c ea3c
000002c0: 8e2d 20bd 1db2 2abe 976f c4bd f318 983b
000002d0: 1e06 cabc 3385 2ebd 86d7 033c 67ac b2bc
000002e0: d21a abbd b18a 14bb 04fa 26bd 3b60 04bd
000002f0: 1f85 e13c 7306 5bbd 2047 09bd 3b26 5b3c
00000300: 9cd2 f73c 35f4 46bd da9a 9dbd cd78 1c3d
00000310: e97f dcbc aed0 083d 1447 343d 68c5 903c
00000320: 99a8 373d 3ade ec3c 0102 293c 395a babc
00000330: 91a3 813c 6806 c43c 80f5 84bb 85af 043d
00000340: 59e9 cb3c 7c4d aebc 7872 6a3c 10da 80bd
00000350: 6a23 a43c 2b38 8fbc 67f3 0f3e 471d cbbc
00000360: 0e20 48bd 2e7a d33c d8b4 02bd da94 083d
00000370: bc5a 0aba ee5c a03b 5744 6f3c 4a29 e23c
00000380: f9f2 2a3d b545 853d f78b 433c ed73 3cbd
00000390: abe0 24be 2df2 e3bb 4d2f bdb9 3158 da3c
000003a0: 3ba2 803c 5719 2fbd a947 543c 9acd dfbc
000003b0: 778a 9ebd 1598 3f3c 20e3 07bd e21e edbd
000003c0: db79 bebc 7373 283e 1be5 e3bc 76c9 353c
000003d0: 693d ddbc 1e17 32bd c2b4 e6bd b1d2 e93c
000003e0: 8423 193d 76f0 5d3c 28b6 dfbb 0311 ba3c
000003f0: b30f 2dbd 124e d43c 6d52 7dbd 2e97 453d
0.018676948 -0.03405967 -0.028317813 -0.024569716 0.023726737 -0.0321116 -0.11773815 -0.034539253
-0.023847016 0.05226321 -0.012790684 -0.032339644 -0.042605467 -0.025545573 -0.025903633 0.027644297
-0.0072811167 0.005486874 -0.05929597 0.04845924 -0.033269312 -0.028657554 0.031955075 0.03506587
0.02341842 0.048371375 -0.11650048 0.021138318 -0.007235313 -0.00664179 0.032210913 -0.057009805
-0.025734683 -0.09384707 0.031204468 0.03676285 0.008977161 -0.02215289 -0.006534107 0.0432392
-0.028543796 0.0022484618 -0.02286308 -0.009293247 -0.09643 0.032862876 -0.013498701 0.1274024
-0.018470973 -0.17635138 0.03299127 0.013656244 -0.029484536 -0.0012037719 0.05295717 -0.022882955
-0.034409706 -0.037780624 -0.03663113 -0.032527015 -0.040801637 0.026881145 -0.016214779 0.02379236
-0.0008810335 -0.08575174 0.035576932 0.023007108 -0.028057473 -0.054234833 -0.024347454 0.011374945
0.047786064 0.007442749 0.032414958 -0.044082217 0.00024661393 -0.024211403 -0.028490743 -0.04577313
-0.065472044 -0.06311935 -0.021006482 -0.0197194 0.039163314 0.027382605 -0.009350863 -0.010390107
-0.15587665 0.052473743 -0.0133667635 0.020113783 -0.034687813 -0.022082038 0.03469448 0.037952363
-0.018152732 0.02940074 0.010585495 -0.03349574 0.04055384 0.020919744 0.014885738 0.0022866572
-0.024078595 0.047878053 0.057733037 -0.019603236 -0.090711944 0.006482366 -0.04487577 -0.07246337
-0.028746385 0.049326673 -0.02350828 0.082596175 0.0006721935 -0.04023067 0.10922852 0.029956631
0.00074897497 -0.037534308 0.013670769 -0.0011483632 0.013797898 -0.040253058 0.03187119 0.016332086
0.022125514 0.03611746 0.027157798 -0.02353747 0.03204686 0.019091478 0.00095291785 -0.032057285
0.0015506815 -0.13349669 -0.017123401 0.025096755 -0.055175755 0.0141244745 0.07237577 -0.034723993
-0.02470188 0.033308614 0.009894562 0.03542785 0.013147074 -0.058192797 0.038754944 0.020169502
0.043865766 -0.01853014 0.024569847 0.027559176 -0.023170417 -0.009921266 -0.025037823 -0.117808074
-0.047461756 -0.089615844 -0.047249548 0.031410534 -0.018806737 0.05524501 0.016247163 0.022973621
-0.028605444 0.03219577 0.018028999 0.024547538 -0.026517399 0.037065692 0.013745779 0.028601121
-0.039105944 -0.16669507 -0.095915966 0.004641646 -0.02466112 -0.042607497 0.00804699 -0.021810723
-0.08354725 -0.0022665674 -0.040765777 -0.032318335 0.027529297 -0.053472947 -0.033515096 0.013375814
0.030251794 -0.048572738 -0.07695551 0.038201142 -0.026916461 0.033402137 0.044013098 0.017672256
0.04483852 0.02891456 0.010315419 -0.0227481 0.015825065 0.023928836 -0.004057586 0.03239395
0.024891542 -0.021277182 0.014309518 -0.06291592 0.020036418 -0.017482838 0.14057694 -0.024794234
-0.048858695 0.025815096 -0.031910747 0.03334508 -0.00052778027 0.0048938906 0.014603696 0.027607579
0.041735623 0.06507436 0.011935226 -0.046008993 -0.16101329 -0.00695636 -0.0003608413 0.026653381
0.015702358 -0.042748775 0.012956538 -0.027319718 -0.07741254 0.011693974 -0.033175588 -0.11578156
-0.023251465 0.1645029 -0.027819207 0.011095395 -0.027006822 -0.043479078 -0.112649456 0.028542848
0.037387386 0.0135461 -0.0068271346 0.02271319 -0.0422513 0.025916133 -0.061846185 0.04823988
