TSV_qwen2.5-7B_tqa/exemplar_num_32_num_selected_data_128/res/21/5/saved_vectors/tsv_layer_21.npy (npy, 14464 bytes, 1 tensors)

array f4 [3584]
0	0xbe2161d7	-0.15759979
1	0x3e1cd1b7	0.15314375
2	0x3cbc8671	0.023013325
3	0xbe021159	-0.1270193
4	0xbe4168ae	-0.18887588
5	0xbe49869f	-0.1968026
6	0xbe3dc065	-0.18530424
7	0xbe0876f1	-0.13326623
8	0x3dfcf2f1	0.12351025
9	0x3e03deec	0.12878007
10	0xbe5a9d70	-0.2134912
11	0x3dcfcef8	0.10146898
12	0x3da92a70	0.082600474
13	0xbdaaa5a8	-0.08332378
14	0xbe12e510	-0.14345193
15	0x3e07903a	0.13238612
16	0xbda9b036	-0.08285563
17	0x3e708539	0.2348832
18	0x3e06c855	0.13162358
19	0x3dd241c1	0.10266448
20	0x3d3445b2	0.04401178
21	0xbdfcea59	-0.12349386
22	0x3df53502	0.11973001
23	0x3de42249	0.11139352
24	0xbddca88d	-0.10774336
25	0x3dc3e533	0.09565201
26	0x3c7e9886	0.015539294
27	0x3e249164	0.16071087
28	0xbe035123	-0.1282392
29	0x3e4ba63a	0.19887629
30	0xbdc03f9d	-0.09387133
31	0xbe78300f	-0.24237083
32	0xbe00e44d	-0.1258709
33	0xbe31d80a	-0.17367569
34	0x3e00ce67	0.12578736
35	0x3e4ac912	0.19803265
36	0xbe0df7f0	-0.13864112
37	0xbd7891e7	-0.06068602
38	0x3cfa6eea	0.030570466
39	0x3deb98d9	0.11503763
40	0xbd46b6b2	-0.048514076
41	0x3d5004f1	0.050785962
42	0x3d335f84	0.043792263
43	0xbdff23e1	-0.12458015
44	0x3e199fd8	0.15002382
45	0xbe2eba00	-0.17063141
46	0x3d35a8ce	0.044350438
47	0xbd60fc21	-0.05492795
48	0xbcb59e85	-0.022170315
49	0x3e8284ed	0.2549204
50	0x3e1a1b51	0.15049483
51	0xbe16559c	-0.14681095
52	0x3e3abecc	0.18236846
53	0xbd7dea3f	-0.061990973
54	0xbd68af51	-0.05680782
55	0xbe0c5f98	-0.13708341
56	0xbda268e1	-0.0793016
57	0xbe3d4652	-0.18483856
58	0x3c5e5605	0.013570313
59	0x3e1ae4f1	0.15126397
60	0x3dbb4201	0.091434486
61	0x3e3ef32a	0.18647447
62	0xbd7bdf7d	-0.061492432
63	0x3cdd0ad5	0.026982704
64	0xbdacfe1a	-0.084469035
65	0x3e28ef90	0.16497636
66	0x3d4125fe	0.047155373
67	0x3e201d3f	0.15636156
68	0xbe334b65	-0.1750923
69	0xbe3063f3	-0.17225628
70	0xbc81d5d1	-0.015849026
71	0x3dce33cc	0.10068473
72	0xbd877210	-0.066135526
73	0x3cccec63	0.025015062
74	0xbde86857	-0.11348026
75	0xbd190454	-0.037357643
76	0xbe0a38e8	-0.1349827
77	0x3e134e4c	0.14385337
78	0x3dd69ba6	0.10478906
79	0xbe5ee4de	-0.21766993
80	0xbb474a30	-0.003040921
81	0xbd9d9914	-0.07695213
82	0xbd52b7b6	-0.05144473
83	0xbd988c39	-0.0744862
84	0xbe29c65b	-0.16579573
85	0xbc997552	-0.0187327
86	0x3bcb20f8	0.0061989985
87	0xbd0deb4b	-0.03464822
88	0x3e240812	0.16018704
89	0x3e2d54fd	0.16926952
90	0x3e54856f	0.20754026
91	0x3c1f8e46	0.0097385105
92	0xbe2997fd	-0.16561885
93	0x3d7da218	0.061922163
94	0x3e531afe	0.20615765
95	0x3df22cd0	0.118249536
96	0xbd604743	-0.05475546
97	0x3d42eef9	0.047591183
98	0x3d38d346	0.04512336
99	0xbdfffa28	-0.124988854
100	0xbd39f839	-0.04540274
101	0xbd7e4501	-0.062077526
102	0xbe1935d1	-0.14961936
103	0x3e54e7f6	0.20791611
104	0xbe1a38c6	-0.1506072
105	0xbe0a1a34	-0.13486558
106	0xbdef626a	-0.11688693
107	0x3dbb2620	0.09138131
108	0x3dda75c3	0.106669925
109	0xbcffd0ca	-0.031227488
110	0x3dd54859	0.1041419
111	0x3e0747a8	0.13210928
112	0x3dd86d6b	0.10567745
113	0xbdf578bb	-0.11985918
114	0xbd831d86	-0.064021155
115	0xbe9556bd	-0.2916774
116	0x3d37f7a7	0.044913914
117	0xbe499831	-0.19686963
118	0x3c33fab1	0.010985062
119	0xbe10bcca	-0.14134517
120	0xbd43bef3	-0.047789525
121	0xbe2d8c83	-0.16948132
122	0x3dcbdfd1	0.09954799
123	0xbdb26ece	-0.087125406
124	0x3e76ca65	0.24100645
125	0xbe5a00c1	-0.2128935
126	0x3e39cd65	0.18144758
127	0x3c61265a	0.013742054
128	0xbd702207	-0.0586262
129	0xbe0fc25c	-0.14038986
130	0xbdf21d04	-0.118219405
131	0x3e3c1363	0.1836677
132	0xbe10d6b4	-0.14144403
133	0x3e6d94c7	0.23201285
134	0x3e36eee6	0.1786457
135	0x3d4d15ea	0.050069727
136	0x3e19a34d	0.150037
137	0xbe7e1f70	-0.2481668
138	0xbe2059c3	-0.15659241
139	0x3dd21187	0.10257249
140	0xbd966625	-0.07343701
141	0xbe0a7edb	-0.13524954
142	0xbe5b1b28	-0.21397078
143	0xbe3709d4	-0.17874843
144	0x3e0cdeb0	0.13756824
145	0x3e04439b	0.12916414
146	0xbd826382	-0.06366636
147	0xbd971743	-0.07377484
148	0x3e9091b0	0.2823615
149	0x3df88ec1	0.12136603
150	0x3cb0e3eb	0.021593055
151	0x3e70336d	0.23457117
152	0x3e0b9e8b	0.13634698
153	0x3e30a553	0.17250566
154	0xbe0a55e8	-0.13509333
155	0x3dfc12fd	0.12308309
156	0xbdaab561	-0.083353765
157	0x3e612e21	0.21990253
158	0xbe04074e	-0.12893412
159	0xbca050fc	-0.019569866
160	0xbe5014d2	-0.20320442
161	0xbe26977d	-0.16268726
162	0x3d6965ed	0.05698197
163	0x3cc9db10	0.02464059
164	0x3d889999	0.066699214
165	0x3d8cb281	0.068699844
166	0x3e26f53d	0.16304488
167	0x3dbe0b91	0.0927955
168	0x3d42ac96	0.047527872
169	0xbe1192e6	-0.14216194
170	0x3dd6d733	0.10490265
171	0x3d95c445	0.07312826
172	0x3d94c158	0.0726344
173	0x3e1b5498	0.15168989
174	0xbdd1a27d	-0.1023607
175	0xbe0ce744	-0.13760096
176	0xbe5680cd	-0.20947571
177	0xbc7cab08	-0.015421636
178	0xbdf19196	-0.117953464
179	0x3e080996	0.13284907
180	0xbdd76b8e	-0.10518561
181	0x3df5a098	0.119935215
182	0xbdc29559	-0.09501142
183	0xbd1239e5	-0.035699744
184	0xbdbc7941	-0.09202815
185	0x3e0fa306	0.14027032
186	0xbe3efc7c	-0.18651003
187	0x3dedfaed	0.11620126
188	0x3e0678f1	0.13132073
189	0xbe1e0e6c	-0.15435189
190	0xbe0b4e88	-0.13604176
191	0xbe340a02	-0.17581943
192	0x3d7871f6	0.060655557
193	0xbe0dc9cc	-0.1384651
194	0xbd9dbf92	-0.07702555
195	0xbdce3d95	-0.100703396
196	0xbe33c2d1	-0.17554785
197	0xbe774f52	-0.24151352
198	0x3e272790	0.16323686
199	0xbe032f2f	-0.12810968
200	0x3e2fa3aa	0.17152277
201	0xbe13d78e	-0.14437696
202	0xbd11be95	-0.035582144
203	0x3e50e7a0	0.20400858
204	0xbcb21652	-0.021739159
205	0x3d19c9f4	0.037546113
206	0xbde6f2ce	-0.1127678
207	0xbe235d13	-0.15953474
208	0x3e3e86bf	0.18606089
209	0x3e2ab34b	0.16669957
210	0xbe709883	-0.23495679
211	0x3de40c70	0.11135185
212	0x3da8ae6c	0.08236393
213	0x3e0ea1fb	0.13928978
214	0x3cde95d2	0.02717105
215	0xbd47c165	-0.04876842
216	0x3e6b804b	0.22998159
217	0x3d92f9ae	0.07176529
218	0xbdbb002f	-0.091308944
219	0x3e105c10	0.14097619
220	0xbe095140	-0.134099
221	0xbc8dce08	-0.017310157
222	0xbd98f1f7	-0.07468026
223	0xbd376fb6	-0.04478427
224	0x3d7a3150	0.061082184
225	0xbd44d089	-0.048050437
226	0xbe169a59	-0.14707316
227	0xbdd6456f	-0.10462462
228	0xbe042d8d	-0.12908001
229	0x3e340680	0.17580605
230	0xbe562cc0	-0.20915508
231	0x3dbf14b3	0.0933012
232	0xbdaa7eff	-0.08325004
233	0xbe24630d	-0.1605341
234	0xbd47c4e7	-0.048771765
235	0x3cddbced	0.027067626
236	0x3cfce440	0.030870557
237	0x3db72084	0.08941749
238	0xbdf0999c	-0.11748049
239	0xbe42d3de	-0.19026133
240	0x3e4223e2	0.18959
241	0x3da8d3fc	0.08243558
242	0x3a1ae8a2	0.0005909299
243	0x3da7203c	0.08160445
244	0x3dc6ba14	0.0970346
245	0x3dacbdb1	0.08434618
246	0xbe0b50c2	-0.13605025
247	0x3e4d8ba3	0.20072798
248	0x3e62e3fa	0.22157279
249	0xbc616fa9	-0.013759532
250	0x3d60f141	0.054917578
251	0x3d003991	0.0313049
252	0x3e5b103f	0.21392916
253	0xbe565a9a	-0.20932999
254	0x3e25737a	0.16157332
255	0xbe05d1d6	-0.13068327
