TSV_qwen2.5-7B_tqa/exemplar_num_32_num_selected_data_128/res/6/5/saved_vectors/tsv_layer_6.npy (npy, 14464 bytes, 1 tensors)

array f4 [3584]
00000000: a8b2 ae3d bd02 d3bd 7d79 23bc 5661 c1bb
00000010: 46b8 1f3d a9d9 9b3d f632 433d da52 6abb
00000020: 601a 8b3c 20a3 193d 0c99 19bb 7920 99bd
00000030: bf6a c23b 7d46 36bd 7d02 353e eb92 0c3d
00000040: 5fba 6ebc 6008 11be de4a e13d 4094 f43d
00000050: 1eea 9cbd 0956 843c e64c 8dbd c7d3 8fbd
00000060: 224b 97bd ba1d 2ebd 0a11 76bd 7a74 073e
00000070: 3cf7 31bc afa5 15be 3085 193e 5689 15be
00000080: 1e52 23bd 41a5 e7bc 3714 8c3d 3317 4d3d
00000090: dbf6 8b3d 6760 b0bd ddac d93d aed3 c33c
000000a0: fd9a 863d 97c8 5c3d 0ed6 cc3b be44 d03d
000000b0: f94f 1fbd 796a 9d3d ffcc 053e 813f 3d3d
000000c0: 22c3 3bbd 2f4c c73d c81a 1e3d 2a45 56bd
000000d0: 9632 0b3d 2430 323d 5107 b63d e809 8cbd
000000e0: a1d6 a93c b359 8cbc 0cdd fa3d 61b7 b83c
000000f0: 2546 273c 01aa 55bd fa57 a9bb 956c 44bd
00000100: 2254 bc3c 22a0 c93c 8d7b e2bc 56ad 973d
00000110: d70e fbbd b3e6 7e3c 2ddd 413c 1a5b e5bc
00000120: d511 07bd b11d 733d 7dd9 95bd 6ad6 2c3d
00000130: 8014 3d3d 8177 b3bd ceea 2ebd 4a4c 19bc
00000140: a997 223e 1843 c1bb c69f 283d db8f 21bd
00000150: c0a4 5cbd e1a6 413d 9578 6a3d 4451 733b
00000160: 0052 013d 9469 c03d 2a8e 153d 64d5 003c
00000170: a154 7bbc f037 f6bd 49d9 7e3d 6306 4a3d
00000180: 2494 06be 5dd9 013e 3375 e63b 2ce8 83bd
00000190: 9dd0 34bd d097 2abe 22d2 ebbd 6901 473d
000001a0: 0665 093e 6434 ac3d 22c5 0cbd 5ae8 00be
000001b0: 69d5 63bc ea1e 583d 9386 7b3c d6bf 063d
000001c0: fc5e 8cbd 4554 82bb cab1 d03d cdc9 9ebd
000001d0: 11ea 30bd 5b24 7d3d 8b54 3fbd 40eb 0f3e
000001e0: e635 e93d 9298 bf3b dcbf 55bc 0612 a63d
000001f0: d59e d53c d4c9 28bd b812 bd3d 0480 aabd
00000200: e67c d1bd 842b cbbb 7b54 2cbd a8ad 7a3d
00000210: e991 b03d 230a 383d df59 f23d 95aa 4bbd
00000220: c647 17bd 98a9 773d 0d36 9fb9 9b7e ce3d
00000230: 5744 2cbd 7e14 2f3c b2ef 9b3d b9c1 9e3d
00000240: 74c6 343e 5bcc 00bd e5da 66bd 1e71 743b
00000250: 6aaa ae3d fdce 00bd 6aa8 103e a59b 953d
00000260: 7d82 16bd d162 b73d fcb7 463c 343d 8d3c
00000270: c348 3b3d 2167 ec3c 93ab eabc 64e7 043b
00000280: 9647 aabc 1cfd f0bd 18a8 6a3d 450d eb3d
00000290: 5fac bfbd be4a 5c3d e057 19bd 967b fd3d
000002a0: f059 a53d c8cc 77bd 4d26 39bd f826 d3bc
000002b0: a9c5 213d 4ad2 603d a376 07bd 02d0 0fbe
000002c0: cc56 a3bd c25d e3bd 0b22 8bbc d20e e33d
000002d0: 673d bebb e753 bd3c 039f 27be a730 cebd
000002e0: a87a 2dbd acd6 ea3a 04e7 c9bd bd7e f83d
000002f0: c42b 94bc c48c 8e3d 1b1b db3c fcf8 83bc
00000300: b5ef 38bd 63fe 133d ab47 803c 3edc 013e
00000310: db70 46bb ece1 d9bd 86a2 15be 6dc3 aaba
00000320: a82a c5bd 1743 af3d 8205 bb3d be27 1b3d
00000330: 12df d43d 274d 3dbe cc60 b3bd 1079 623c
00000340: 641c b7bd ff32 843d 5e6e cf3d eed2 273d
00000350: e96c 65bc 0dee b23d 5313 21be 0acc febc
00000360: 45af f13c c407 9cbd afc7 6f3d 6de8 cc3c
00000370: c015 3f3e 4b45 d4bd 1ab2 babd 5c58 a43c
00000380: a2b9 d13d 9418 c53d cca5 c2bd dad4 c2bd
00000390: 923f 8bbd e053 813d 0b82 0b3e 3cf0 75bd
000003a0: d729 743d e23a 133d 4827 b7bd eb7c 80bd
000003b0: e7be cb3d f239 42bd f850 a4bd 4695 9e3d
000003c0: f974 463d 3f75 923c 50a0 823d 6f18 3bbd
000003d0: 8314 f53d 7c83 823b e96f 86bd 2a36 873d
000003e0: 65cb bcbd a3c2 46bd 11a6 353d adf1 963b
000003f0: d37f 663d 2679 fbbc ac3d 5fbd 3073 95bc
0.0853017 -0.10303257 -0.0099776955 -0.005901496 0.038994096 0.07609875 0.047656022 -0.003575495
0.01698035 0.037509084 -0.002343717 -0.07476897 0.0059331353 -0.044500817 0.1767673 0.0343198
-0.0145708015 -0.14163351 0.11000608 0.11942339 -0.07661842 0.016154306 -0.06899433 -0.07022815
-0.07387377 -0.04250882 -0.060074843 0.13228026 -0.010862168 -0.14613985 0.14992213 -0.14603171
-0.039873235 -0.028277041 0.06839793 0.050070953 0.06834193 -0.08612137 0.10628674 0.023904648
0.065725304 0.053902235 0.0062511032 0.101693615 -0.038894627 0.07686324 0.13066481 0.04620314
-0.04584039 0.09731328 0.03859976 -0.052312054 0.03398379 0.04350294 0.08888114 -0.06837827
0.020732226 -0.017132616 0.122491926 0.02254838 0.010209595 -0.05216408 -0.0051679583 -0.047955114
0.022989336 0.02461249 -0.027646804 0.07406108 -0.1225869 0.015557933 0.011832518 -0.027997542
-0.03297599 0.059354488 -0.07316873 0.04219667 0.04616213 -0.08763028 -0.042704396 -0.009356568
0.15878166 -0.005897891 0.041167997 -0.039443832 -0.053868055 0.04727829 0.057243902 0.0037127296
0.031572342 0.093951374 0.03651253 0.007863376 -0.015340001 -0.12022388 0.062218938 0.049322497
-0.13142449 0.12680574 0.007033014 -0.06440768 -0.04414426 -0.16659474 -0.11514689 0.04858533
0.13417444 0.0840843 -0.034367688 -0.12588635 -0.013905861 0.052763857 0.015351909 0.032897793
-0.06854054 -0.003977331 0.101901606 -0.07753334 -0.043191973 0.06180225 -0.046711486 0.14054585
0.113872334 0.005847045 -0.013046231 0.081089064 0.026076714 -0.041208103 0.09232086 -0.08325198
-0.102289006 -0.006200256 -0.042072754 0.061200768 0.0862158 0.044931542 0.11833548 -0.049723227
-0.036933683 0.06046447 -0.00030367114 0.10082742 -0.04205736 0.010686038 0.07614078 0.077517934
0.17653829 -0.03144489 -0.056361098 0.0037298868 0.08528598 -0.0314474 0.14126745 0.073050775
-0.036745537 0.089543946 0.012128826 0.017241098 0.045723688 0.02885777 -0.028646266 0.002027952
-0.020786088 -0.11767027 0.057289213 0.1147714 -0.09359049 0.053782217 -0.03743732 0.12377088
0.08073795 -0.06049803 -0.045202542 -0.025775418 0.039495144 0.054888047 -0.033072125 -0.14044192
-0.079755396 -0.11101867 -0.016984006 0.11086811 -0.0058056596 0.023111297 -0.16369252 -0.100678734
-0.042353302 0.001791676 -0.09858516 0.121335484 -0.018087275 0.06960443 0.026746323 -0.016109936
-0.045150477 0.036131274 0.015659174 0.12681672 -0.003027967 -0.10638794 -0.14612779 -0.0013028212
-0.09627277 0.08557718 0.0913191 0.037879698 0.1039411 -0.18486463 -0.08758697 0.013822809
-0.08940962 0.06455039 0.10128473 0.040972643 -0.014003017 0.08736811 -0.15730028 -0.031103153
0.02950252 -0.07618669 0.058540042 0.025013173 0.1866064 -0.10364779 -0.091160014 0.020061664
0.10240485 0.096238285 -0.095042795 -0.095132545 -0.067992344 0.06314826 0.13623826 -0.06004356
0.059610214 0.035944827 -0.08943039 -0.06273826 0.09948521 -0.047418542 -0.08023256 0.077433154
0.048451398 0.017878173 0.063782334 -0.0456776 0.11966803 0.0039829593 -0.06564314 0.06602128
-0.09218482 -0.048525464 0.044347826 0.0046064467 0.056274246 -0.030697417 -0.054502174 -0.018243402
