TSV_qwen2.5-7B_tqa/exemplar_num_32_num_selected_data_128/res/11/5/saved_vectors/tsv_layer_11.npy (npy, 14464 bytes, 1 tensors)

array f4 [3584]
000000 75 ca 56 be be 5a d5 bd df c2 9b 3d e2 c9 7d bd
       -0.20975669 -0.10417698 0.07605528 -0.06196011
000010 df 96 9d bd 5d 29 95 bd 36 bd 08 bd a8 c9 df bc
       -0.07694792 -0.0728328 -0.03338357 -0.027317837
000020 52 20 7a bd 3d f0 b9 3c 3b ff ae bc 9f b4 c0 bd
       -0.06106598 0.022697562 -0.021361938 -0.09409451
000030 72 c1 7b bb 62 ed 86 bd 92 c3 45 3c 5c f1 dd 3d
       -0.0038414863 -0.06588246 0.012070553 0.10837051
000040 a9 a2 01 bd ae 25 2a bc d4 b7 02 be 3b 54 87 3d
       -0.031649265 -0.01038496 -0.12765437 0.066078626
000050 4a cc 4e 3c 70 e1 96 bd 3c 10 11 bd cc 59 96 bd
       0.0126219485 -0.073672175 -0.035415873 -0.07341346
000060 ae cd 27 3c d6 93 13 bd df 96 39 3d 9c 2c 56 3e
       0.010241909 -0.03602966 0.045309898 0.20915455
000070 6f ab ff bb 8b 2d 04 3e b3 7a 6c bd b7 07 20 be
       -0.007802419 0.12907998 -0.057734203 -0.15627943
000080 52 a3 b2 3d 4e 7e 0d bb cb 8b e9 bd cb 89 91 bd
       0.08722557 -0.0021590176 -0.114036165 -0.0710636
000090 0c 8d c3 bc 69 8b c4 bd dd d7 24 bd 1e 46 fc 3c
       -0.023870967 -0.09596903 -0.040244926 0.030795153
0000a0 16 b9 dd 3d 2e 48 b2 3d 5c f9 eb bb f6 c0 08 3e
       0.10826318 0.087051734 -0.007201357 0.13354859
0000b0 e9 8f f8 3c e2 6f 79 bc 16 60 ce 3d 55 80 07 be
       0.03034206 -0.015224429 0.10076921 -0.13232549
0000c0 9a 8d c3 bc 61 4e cd 3d 99 09 d0 bd 34 c4 1b 3d
       -0.023871232 0.10024715 -0.101580806 0.03802891
0000d0 63 c2 41 3d 08 70 a4 bd 53 92 22 ba 24 6b b8 bd
       0.047304522 -0.08029181 -0.00062016136 -0.090048105
0000e0 27 dd d7 bc e0 39 af bd 15 6a a2 3d 0a ed 11 3e
       -0.02635057 -0.08555961 0.0793039 0.1425058
0000f0 6e 55 4d 3d 33 33 a2 3d 51 94 9a 3c e1 24 cd bd
       0.0501303 0.07919922 0.01886955 -0.100168
000100 d3 d4 8e bd c6 52 ba 3d e4 c4 20 3d 04 04 f4 bb
       -0.06974187 0.09097819 0.03925027 -0.0074467678
000110 a9 88 ca bd 0c 9c fd ba ca 38 27 bd 71 5d 0b be
       -0.09889347 -0.0019348874 -0.040825643 -0.13609864
000120 bd 70 12 3e b8 d6 8b 3d 5d 39 5c 3d b8 f9 78 3d
       0.14300819 0.06828064 0.053765643 0.060785025
000130 a1 c9 e7 bd 04 7d 0c be 62 e3 0f be 55 56 83 3d
       -0.113177545 -0.13719565 -0.14051583 0.06412951
000140 55 03 bf bd 8a 67 18 3d 9c 7f 15 bd 71 b2 9e 3d
       -0.093268074 0.037208118 -0.03649865 0.07748879
000150 a2 95 1f be bf e6 3a ba 50 5a 12 3d a2 38 47 bd
       -0.15584424 -0.0007129721 0.03573066 -0.048637994
000160 f1 00 0f 3e fd 73 24 3e a1 6c a2 bc 0f f0 14 3e
       0.13965203 0.16059871 -0.019827189 0.145447
000170 5a 2f fa 3c 8e c3 0c 3e d8 14 57 3b a5 0b 3d 3d
       0.030540157 0.13746473 0.003281882 0.046153683
000180 35 52 cb bd a8 c6 ab bd 14 54 cc bc 0f 07 1e 3d
       -0.09927789 -0.083875 -0.024942435 0.03858095
000190 ff 85 ac bb 10 22 08 be bf f9 99 bd 90 ff 5c bd
       -0.005264997 -0.13294244 -0.075183384 -0.05395466
0001a0 29 b8 41 3e 07 73 13 bd e3 f4 6b bd 34 d2 e8 3d
       0.18917908 -0.03599837 -0.05760659 0.11368218
0001b0 e3 5c b1 bb e1 9f 03 3e 86 01 d7 bd f2 32 0e be
       -0.0054126843 0.12853958 -0.104983374 -0.13886622
0001c0 e5 df 2d bd b1 47 0b bd 7b fe 0a bd 30 fd bd 3d
       -0.04244985 -0.034003917 -0.033934098 0.09276807
0001d0 8d 73 8f 3d ce 21 0a be cc 06 cf 3d 8a fa f3 ba
       0.070044614 -0.13489458 0.10108718 -0.0018614095
0001e0 dc f5 1b 3e f8 56 cf 3c 40 91 0a bd 46 3b 55 bc
       0.15230507 0.025310025 -0.033829927 -0.01301462
0001f0 72 4f a4 bc 51 2a 95 bd 42 52 04 3b 44 11 aa bd
       -0.020057414 -0.07283462 0.002019063 -0.083040744
000200 cb fa 05 be 9d e2 2e be a1 b8 af bd 4d 5f 4f bd
       -0.13083951 -0.17078634 -0.08580137 -0.050627995
000210 96 01 4d be aa cf d9 3d da 37 02 3e 28 76 14 bd
       -0.20020136 0.10635312 0.12716618 -0.036245495
000220 48 39 00 3e bb 4e 33 3e a5 6c c2 bd 0d e2 d3 bb
       0.12521851 0.17510502 -0.094933785 -0.0064661563
000230 06 a5 bb 3c a0 c8 e6 bd a1 fa dd bd 68 47 54 3c
       0.022905838 -0.11268735 -0.10838819 0.012956478
000240 73 72 09 3e 6d ba d2 bc 36 c9 f5 bd 94 24 1d 3e
       0.13422565 -0.02572366 -0.120012686 0.15345985
000250 f2 6a 14 bd ec ae 1e bd 77 cb 1e bd ae 9b e4 3d
       -0.036234803 -0.038741037 -0.038768258 0.11162506
000260 fe e9 17 bc 9d 92 21 be 85 cf 8e bc 32 f6 98 3d
       -0.009272097 -0.15778585 -0.017432937 0.07468833
000270 69 60 f5 bd 0e 78 08 3d 2a ce 51 bd 57 f0 63 3c
       -0.119812794 0.033317618 -0.051222004 0.013912282
000280 0f d9 09 bd fe 16 3e 3d 62 f0 65 3c d6 6b 1a 3e
       -0.03365427 0.046408646 0.0140343625 0.15080199
000290 be 2e d0 bc 93 d1 be 3d 59 e4 0d be 88 d2 3a 3e
       -0.025412913 0.09317317 -0.13856639 0.18244374
0002a0 20 48 1b 3d 27 c8 03 be de 3e f5 3c 76 05 b8 3d
       0.03791058 -0.12869321 0.029937204 0.089854166
0002b0 a8 1a 59 bd 68 dd d1 3d ab a4 66 3d a1 63 21 be
       -0.053003937 0.10247308 0.056309383 -0.15760662
0002c0 ea e4 d0 3d 77 06 8b 3d 3c d9 9e bd 02 4a 0a 3e
       0.10199912 0.067883424 -0.07756278 0.13504794
0002d0 77 a1 44 bd da b5 08 be 78 d2 92 bc d6 75 14 bd
       -0.048005547 -0.13350621 -0.017922625 -0.03624519
0002e0 c5 6d 88 3d 72 15 18 3e c3 85 3e be 82 0e f8 3d
       0.06661562 0.1485193 -0.18605714 0.12112142
0002f0 f2 2f 20 be 37 fd d6 bd d7 86 4e 3d 9a 6e f5 bd
       -0.1564329 -0.10497516 0.050421562 -0.11983986
000300 3d 0f 75 3c cf db b8 3d 40 76 94 3d 26 ed 27 be
       0.014957246 0.090263 0.07249117 -0.16399059
000310 15 49 1d 3c c5 dd a6 3b 81 ea 78 bc 32 b7 60 3d
       0.009599944 0.005092355 -0.015192629 0.05486221
000320 9c 3e 60 bd f0 7b 0f be 37 c3 13 bd fd 5c be 3d
       -0.05474721 -0.14012122 -0.036074843 0.0929508
000330 72 bd 09 be 33 95 a9 bd d6 90 dc bd d0 df bc bd
       -0.13451174 -0.082804106 -0.10769813 -0.09222376
000340 6e e9 3a 3d fb 36 3d 3e ba da 2f 3e 53 16 55 3d
       0.045632772 0.18478005 0.17173281 0.052023243
000350 b6 29 ac bd 4a f3 1f 3c e6 e4 84 bd fb e1 6c bd
       -0.08406393 0.0097625945 -0.064889714 -0.0578327
000360 f2 ea 37 be 57 dc 91 bd a2 fa 7d 3d 4a 47 f3 3d
       -0.17960718 -0.071221046 0.0620066 0.11878832
000370 2d bb a0 bc 22 12 18 be 19 ae a4 3c a2 73 ec bd
       -0.019620502 -0.14850667 0.020102547 -0.11545493
000380 e5 92 54 3d 58 55 7e 3d a5 bc c0 bd 28 15 ac 3c
       0.051897902 0.06209311 -0.09410981 0.021006182
000390 fd c1 6c 3d 5d 95 08 bd d0 c0 fc bd a1 f6 27 bd
       0.05780219 -0.03334557 -0.123414636 -0.041006688
0003a0 d6 40 0e 3e bf 8a d1 3b e8 ef ca 3d 23 ae 12 be
       0.1389192 0.0063947137 0.0990904 -0.1432424
0003b0 e1 de 76 bd 49 70 37 bd b1 da 9f bc 6e ea c6 bc
       -0.060271148 -0.044784818 -0.01951346 -0.024281707
0003c0 fc 25 5d bd 15 ce c7 3d ed f8 59 bd 8a f7 8f bd
       -0.053991303 0.09756104 -0.05321591 -0.07029636
0003d0 68 ef fc 3d ab 27 dc bd 87 91 b8 3d 81 33 b2 bd
       0.123503506 -0.107497536 0.09012132 -0.0870123
0003e0 aa 14 e9 bc 39 51 13 3e 8c 88 03 3c d7 a3 23 3d
       -0.028452236 0.14386453 0.008028161 0.03995117
0003f0 bb 44 89 bd b2 0b 2d bc d7 7a 73 bd e7 05 2d be
       -0.067025624 -0.01056187 -0.05944332 -0.16896783
