TSV_llama3.1-8B_tqa/exemplar_num_32_num_selected_data_128/loss_repulsion/attn/15/5/saved_vectors/tsv_layer_15.npy (npy, 16512 bytes, 1 tensors)

array f4 [4096]
0	0x3c5784a8	0.013154186
1	0xbbce8e07	-0.006303552
2	0xbcc445c4	-0.023959048
3	0xbc12e711	-0.008966223
4	0xbd38a04c	-0.045074746
5	0x3d29e34b	0.04147653
6	0xbca738af	-0.020412771
7	0x3a6b03ed	0.00089651236
8	0x3c165c60	0.009177297
9	0x3cb98d4e	0.022650387
10	0x3c71a0eb	0.0147478385
11	0xbbc4a502	-0.006001116
12	0xbd25ade4	-0.04044904
13	0xbd5ce43b	-0.053928595
14	0xbca9133f	-0.02063906
15	0xbd65ab31	-0.056071464
16	0xbc46cd93	-0.012133974
17	0xbd790581	-0.060796265
18	0xbc59c0a7	-0.013290561
19	0x3da4a19f	0.08038639
20	0x3bf6044e	0.0075078374
21	0xbd582525	-0.0527698
22	0x3cc6e901	0.024281027
23	0x3ca6a9d7	0.020344658
24	0x3d5f4083	0.054504883
25	0xbd676ae6	-0.05649843
26	0x3ca9e8ea	0.020740945
27	0x3dda564c	0.10660991
28	0x3d15f56b	0.036611002
29	0xbcb0a421	-0.021562638
30	0x3ca49a2f	0.020093052
31	0x3cc3ef17	0.023917718
32	0xbd1e9e52	-0.038725205
33	0x3b82fb9c	0.0039972793
34	0x3d33aa56	0.043863617
35	0x3cda3225	0.026635239
36	0xbc96253c	-0.018328302
37	0xbdc51e27	-0.09624892
38	0x3c9af667	0.018916322
39	0x3d5811fb	0.052751523
40	0x3aeaef9d	0.0017924194
41	0x3da67257	0.08127277
42	0xbc70abda	-0.01468941
43	0xbd844ca5	-0.06459931
44	0xbd754af8	-0.05988595
45	0xbcd5b801	-0.026088716
46	0x3ce3c932	0.027805898
47	0x3d55b08d	0.052170325
48	0xba5f8bb8	-0.00085275946
49	0xbcf0d59a	-0.029398728
50	0x3c0ad975	0.008474697
51	0xbd3a4e53	-0.045484852
52	0xbce9e228	-0.028550223
53	0xbd050a72	-0.032480665
54	0x3d0865ff	0.033300396
55	0xbd5a7dda	-0.053342678
56	0x3d7a4650	0.06110221
57	0xbcf0c6d4	-0.029391684
58	0xbc6695e0	-0.014073819
59	0xbc99b81f	-0.018764554
60	0x3bbed3ca	0.005823587
61	0xba7c3d7d	-0.00096221996
62	0xbd54d213	-0.051958155
63	0xbd141ff7	-0.036163297
64	0xba21b40f	-0.00061684934
65	0xbcebaa5a	-0.028767753
66	0x3dd2044d	0.102547266
67	0xbdb991d5	-0.090610184
68	0x3d73fd7f	0.059567925
69	0xbd33a693	-0.04386003
70	0x3c4a9a4a	0.012365887
71	0xbc0ae1da	-0.008476699
72	0xbd01a4dd	-0.031651367
73	0x3c0f3ad8	0.008742057
74	0xbd95856b	-0.07300838
75	0x3d5047e9	0.05084983
76	0x3d571370	0.05250877
77	0xbcda2729	-0.026630001
78	0xbd04e7a5	-0.032447476
79	0x3c8d990d	0.017284894
80	0x3db80931	0.08986128
81	0xbce679cc	-0.02813425
82	0x3a9a7787	0.001178489
83	0x3bb9ded3	0.0056723147
84	0x3cacc449	0.02108969
85	0xbcbc57df	-0.022991119
86	0xbda2855e	-0.07935594
87	0xbc60c62f	-0.013719126
88	0xbd126b21	-0.035746697
89	0x3d2cfc8c	0.042233035
90	0xbd918923	-0.07106235
91	0xbd7bb307	-0.06145003
92	0xbd998e38	-0.07497829
93	0x3d071fd7	0.03298935
94	0x3c32586d	0.01088534
95	0x3c90ae00	0.017661095
96	0x3c144c73	0.00905143
97	0x3d8a6eb6	0.06759398
98	0x3be15309	0.0068763536
99	0x3dceddf3	0.10100927
100	0x3d53c52d	0.051701713
101	0xbc78e0de	-0.015190331
102	0xbcf1353a	-0.029444326
103	0xbc87a8f3	-0.016560053
104	0x3951b59b	0.00019999447
105	0xbd402a53	-0.046915364
106	0x3b7b483c	0.0038342616
107	0xbca4e67c	-0.020129435
108	0xbd016355	-0.03158887
109	0x3db32d82	0.08748914
110	0xbd4dc59d	-0.050237287
111	0xbd685a28	-0.056726605
112	0x3c3eb322	0.011639388
113	0x3bbb1b4c	0.005710041
114	0xbc10a18d	-0.008827579
115	0x3bd93080	0.006628096
116	0xbd07ce20	-0.03315556
117	0x3d14e492	0.036350794
118	0xbd394730	-0.045233905
119	0x3c9818cc	0.018566512
120	0x3ce1d659	0.02756803
121	0xbd288862	-0.04114569
122	0xbc888b7d	-0.016668076
123	0xbd8a5232	-0.06753959
124	0x3c93474b	0.017978331
125	0x3d96c337	0.07361453
126	0xba2ceba2	-0.00065963913
127	0x3dd36ced	0.1032351
128	0xbb536715	-0.0032257487
129	0x3d0109fc	0.031503662
130	0x3c7cb90d	0.015424979
131	0x3ceb565c	0.028727703
132	0x3d06593c	0.032799944
133	0x3d896427	0.06708556
134	0xbb905910	-0.0044051483
135	0x3d527559	0.051381443
136	0x3d76300a	0.060104407
137	0xbd34bac5	-0.04412343
138	0x3d4065a9	0.04697195
139	0x3c612ef9	0.013744109
140	0x3a3f58b5	0.000729929
141	0xbd65bbfc	-0.05608748
142	0xba9594d5	-0.0011412153
143	0x3ce2cf7d	0.027686829
144	0x3bf33f9c	0.0074233543
145	0x3d9f1b18	0.077688396
146	0x3ca68766	0.020328235
147	0xbd856b8c	-0.065146536
148	0xbd72917b	-0.059220772
149	0x3c7d82c8	0.015473075
150	0x3d617cd9	0.055050705
151	0x3d1b6856	0.0379413
152	0x3d3f2c66	0.0466732
153	0xbd14c35c	-0.03631912
154	0xbd1f4133	-0.03888054
155	0x3c4745f8	0.012162678
156	0xbd026729	-0.031836662
157	0xbd4de2a6	-0.050264977
158	0xbd158ee0	-0.03651321
159	0x3c0ab700	0.008466482
160	0xbd0b5359	-0.034015033
161	0xbd5a3fc0	-0.053283453
162	0x3d64eccb	0.055889886
163	0xbca83407	-0.020532621
164	0xbc71abf8	-0.014750473
165	0xbcd0efb8	-0.025504932
166	0xbda5e07b	-0.08099457
167	0xbd59eac6	-0.053202413
168	0xbd369a7d	-0.044580925
169	0x3c44a84f	0.0120030185
170	0xbab444d2	-0.001375342
171	0xbd12e213	-0.035860132
172	0xbbed7884	-0.0072470326
173	0xbc105462	-0.008809181
174	0x3d4d7731	0.050162498
175	0x3d35b64e	0.044363312
176	0xbc81dcb8	-0.015852317
177	0x3c863abb	0.016385427
178	0x3cc6dc29	0.024274902
179	0x3c630bbb	0.013857777
180	0xb8490fec	-4.7936963e-05
181	0x3c3ca85d	0.01151475
182	0xbcb39e95	-0.021926204
183	0x3da20ee4	0.079129964
184	0x3c9e6b68	0.019338325
185	0xbc3f8355	-0.011689027
186	0xbd9e7bd3	-0.07738461
187	0x3a37e01e	0.0007014292
188	0x3d09a564	0.033604994
189	0x3c897540	0.016779542
190	0xbc9ea27f	-0.019364594
191	0x3d3d01ca	0.046144284
192	0x3c7e5153	0.015522319
193	0xbd4a86ae	-0.049444847
194	0xbd00b92e	-0.0314266
195	0x3d12a0c9	0.035797868
196	0x3d060875	0.03272291
197	0x3ce72ad8	0.028218672
198	0xbbee37cc	-0.007269835
199	0x3dba6b44	0.091024905
200	0x39bedaec	0.00036402734
201	0x3d356a63	0.04429091
202	0xbd9921fa	-0.07477184
203	0xbddf657f	-0.10908031
204	0xbccfedda	-0.025381971
205	0xbcd8bbd8	-0.026456758
206	0x3c19190f	0.009344353
207	0x3b9680e0	0.004593
208	0x3c7bc806	0.0153675135
209	0x3db8c859	0.09022588
210	0x3d60ce4d	0.054884244
211	0x3b8aa53e	0.004231124
212	0xbd2ab50d	-0.04167657
213	0xbd16dedf	-0.03683364
214	0xbccac6d0	-0.024753004
215	0xbd2d6628	-0.042333752
216	0xbd475f48	-0.04867485
217	0x3b9265f3	0.0044677197
218	0xbd7be3e2	-0.061496623
219	0xbbb9e90c	-0.0056735333
220	0xbd53cf40	-0.05171132
221	0xbda04580	-0.07825756
222	0x3d4a24e5	0.04935159
223	0xbcca8714	-0.024722613
224	0xbbfbabfc	-0.0076804142
225	0xbd362a3f	-0.044473883
226	0x3e0ceaf1	0.13761498
227	0xbd642462	-0.05569876
228	0xbc880fd6	-0.016609114
229	0x3ccb58d9	0.02482264
230	0x3cf4eaf7	0.029897196
231	0x3d6acd2a	0.057324566
232	0xbd6b8e0b	-0.05750851
233	0x3d9d4a4e	0.07680188
234	0xbaae8f8b	-0.0013317926
235	0xbd8ec858	-0.06971806
236	0xbcebcc1a	-0.028783847
237	0x3c06291f	0.008188515
238	0xbd1dc8b8	-0.0385215
239	0xbc8abad6	-0.016934793
240	0x3d8436b8	0.06455749
241	0x3cb7a965	0.02241964
242	0x3c85a27f	0.016312836
243	0xbd51502a	-0.05110184
244	0x3d03c5f4	0.032171205
245	0x3d75f06b	0.060043734
246	0xbda8894c	-0.08229312
247	0xbd043b3d	-0.032283057
248	0x3d9bff61	0.07617069
249	0x3cef6360	0.02922219
250	0xbc1d90d6	-0.009617051
251	0x3cd38aee	0.025823083
252	0xbd49c53e	-0.04926037
253	0x3d20b9a1	0.03923953
254	0x3c6b7d21	0.014373095
255	0xbc96c892	-0.018406186
