TSV_llama3.1-8B_tqa/exemplar_num_32_num_selected_data_128/loss_repulsion/res/5/5/saved_vectors/tsv_layer_5.npy (npy, 16512 bytes, 1 tensors)

array f4 [4096]
-0.0033041101 0.027478814 -0.021274853 -0.0008860941 0.011512194 0.011406114 -0.048820283 0.010183195
0.05546283 0.00795872 -0.00017431674 -0.014222047 0.020714002 -0.02982324 -0.026311949 0.024987385
-0.016924744 -0.019165108 -0.019550407 -0.009492488 -0.01746121 -0.022582566 0.014443204 -0.019423088
-0.010333373 0.010424006 0.006618826 0.016665556 -0.03996018 0.032090187 0.04750696 0.014419104
-0.028619101 -0.04353131 0.00950768 -0.003533837 0.0059030526 -0.033007745 0.0002543102 -0.039821852
0.013763864 -0.0073351623 -0.004501452 -0.030148698 -0.057646725 0.024728736 0.037006628 -0.049894247
0.025689395 -0.0007717487 0.053308297 0.021686349 -0.055904355 -0.03195864 -0.021107612 -0.025831684
-0.014792783 -0.053368986 -0.014801983 -0.012256391 -0.012194482 -0.03781681 -0.029233815 0.00087662536
-0.016382568 0.020432774 0.010608811 0.02216083 -0.015366432 0.018164612 0.029790277 0.048909914
-0.021771438 0.02155578 0.03452959 -0.021700313 0.0050255866 -0.0080900695 -0.029449755 -0.023739383
-0.03913528 0.0004929512 -0.024089845 0.014992301 -0.008402461 -0.0041915644 0.0016645867 -0.045007862
-0.02847649 -0.0013598877 -0.030205663 0.0017163467 0.01034417 -0.03166052 0.0036610214 -0.039259214
-0.004780282 0.0021677415 0.0028619887 -0.0033527305 0.03515741 -0.004239078 0.001755938 -0.017648542
0.017991792 -0.006582561 0.022105603 0.004402042 0.043672074 0.021537796 0.013422481 -0.0006993024
-0.0063474053 -0.0015129314 0.022015998 -0.02034842 0.013131551 -0.03414765 0.009934373 -0.02196144
0.017553454 0.03311989 -0.003703479 -0.0053849923 -0.008851819 -0.023068672 -0.045864727 0.010900555
-0.020848116 -0.04560689 -0.009356925 0.0098887915 0.04749145 0.0029348726 0.011120718 -0.02827419
0.0058311597 0.060131654 -0.045389794 0.042623647 0.0136644 0.059815414 0.025070347 0.03232367
-0.015921915 -0.017401492 0.015911637 -0.03338175 -0.03344253 0.01967183 -0.011435291 -0.016889364
-0.0019116146 0.055795856 -0.017567547 0.014510965 -0.016548572 -0.029754207 -0.030541163 0.01635701
0.012232588 0.012539455 -0.03571534 -0.08954231 0.047987796 -0.0057240343 -0.0003268098 -0.013556537
-0.038541235 -0.00369539 0.018966775 0.018134795 -0.06302018 -0.007281521 0.0254445 -0.04384029
0.026381165 0.017890137 0.017703192 -0.02172467 -0.0010044982 -0.004707183 0.008179191 0.055648413
0.0046995613 0.001986132 -0.029214488 0.014559851 0.02842209 -0.019623172 0.004674853 0.03602541
-0.015646374 -0.03833784 0.043997414 -0.037640754 -0.015384893 0.014181101 0.0082017295 -0.0010948501
-0.054585032 0.011323821 -0.0010174138 0.0049513793 -0.02176223 -0.034978893 0.009988634 -0.043046784
0.0010716787 -0.04146672 -0.03512148 -0.002361411 -0.017187819 -0.007917038 -0.003765229 0.007123026
0.03148165 -0.024059786 0.026142303 -0.019866176 0.019673154 -0.0029948535 0.017032437 -0.0044603385
0.021381008 -0.010822982 0.0018455121 -0.014830881 -0.024084132 0.027394067 -0.0050090356 0.0038200559
0.0118095195 0.03663934 0.022790467 -0.03455204 -0.024450002 0.0012533629 -0.007971313 -0.04043651
-0.06447928 0.06584795 0.018432124 0.009204638 0.015490903 -0.03429061 -0.06569294 0.013475912
0.03318592 -0.017821087 -0.01942209 0.01077934 -0.010375857 0.02090296 -0.011692391 0.044278335
00000000: c589 58bb 401b e13c 9a48 aebc c548 68ba
00000010: a49d 3c3c b6e0 3a3c c7f7 47bd 6ad7 263c
00000020: fe2c 633d 4b65 023c cbc8 36b9 9703 69bc
00000030: 69b0 a93c de4f f4bc 288c d7bc 58b2 cc3c
00000040: c3a5 8abc 2500 9dbc 2d28 a0bc 6186 1bbc
00000050: d00a 8fbc 13ff b8bc 30a3 6c3c 2b1d 9fbc
00000060: 4f4d 29bc 73c9 2a3c bde2 d83b 3486 883c
00000070: 49ad 23bd 0071 033d a896 423d 1b3e 6c3c
00000080: 9b72 eabc e34d 32bd 1ac6 1b3c f297 67bb
00000090: 656e c13b 2133 07bd f054 8539 3d1c 23bd
000000a0: d481 613c cd5b f0bb eb80 93bb 67fa f6bc
000000b0: f91e 6cbd eb93 ca3c 4394 173d e95d 4cbd
000000c0: 9172 d23c 2e4f 4aba cd59 5a3d 92a7 b13c
000000d0: f7fb 64bd 10e7 02bd dfe9 acbc f89c d3bc
000000e0: 6e5d 72bc 7099 5abd 0484 72bc 08cf 48bc
000000f0: 5dcb 47bc cde5 1abd c17b efbc 55cd 653a
00000100: bc34 86bc a262 a73c 94d0 2d3c a18a b53c
00000110: 7dc3 7bbc f4cd 943c bd0a f43c c355 483d
00000120: 045a b2bc bf95 b03c e66e 0d3d dbc4 b1bc
00000130: adad a43b 368c 04bc 9d40 f1bc 1879 c2bc
00000140: 514c 20bd 6539 013a 1158 c5bc 45a2 753c
00000150: 7aaa 09bc 6459 89bb 432e da3a 2a5a 38bd
00000160: 8747 e9bc 423e b2ba de71 f7bc 0af7 e03a
00000170: 987a 293c 76ae 01bd bfed 6f3b 45ce 20bd
00000180: e9a3 9cbb ab10 0e3b 3490 3b3b 7cb9 5bbb
00000190: 3701 103d f7e7 8abb 8127 e63a ad93 90bc
000001a0: 8663 933c 86b2 d7bb cf16 b53c 013f 903b
000001b0: 7de1 323d 0870 b03c f7e9 5b3c 6451 37ba
000001c0: e5fd cfbb 8e4d c6ba e55a b43c bbb1 a6bc
000001d0: b825 573c 68de 0bbd c8c3 223c 7ae8 b3bc
000001e0: 43cc 8f3c b9a8 073d 11b6 72bb 9774 b0bb
000001f0: 3807 11bc 83fa bcbc a7dc 3bbd 3e98 323c
00000200: abc9 aabc 4ace 3abd ca4d 19bc 9904 223c
00000210: 6586 423d fe56 403b ac33 363c 469f e7bc
00000220: 5013 bf3b 9c4c 763d a6ea 39bd 2296 2e3d
00000230: a6e0 5f3c 0201 753d 5460 cd3c d365 043d
00000240: ad6e 82bc 938d 8ebc 1f59 823c 4dbb 08bd
00000250: 09fb 08bd d126 a13c 165b 3bbc 905b 8abc
00000260: 248f faba 328a 643d d1e9 8fbc 66bf 6d3c
00000270: df90 87bc 18bf f3bc 7631 fabc 23ff 853c
00000280: 316b 483c 4972 4d3c 404a 12bd f561 b7bd
00000290: da8e 443d ae90 bbbb ab57 abb9 3d1c 5ebc
000002a0: 6add 1dbd 5b2e 72bb 3660 9b3c 6c8f 943c
000002b0: b910 81bd d399 eebb fc70 d03c e091 33bd
000002c0: 501d d83c 568e 923c 4906 913c eff7 b1bc
000002d0: 5ea9 83ba b73e 9abb 0302 063c 97ef 633d
000002e0: c7fe 993b c429 023b 3953 efbc 718c 6e3c
000002f0: 71d5 e83c c6c0 a0bc 822f 993b 618f 133d
00000300: d32c 80bc 2408 1dbd a236 343d 312d 1abd
00000310: eb10 7cbc d957 683c 8c60 063c 1381 8fba
00000320: 8e94 5fbd 8c87 393c be5a 85ba 2e3f a23b
00000330: b446 b2bc 0746 0fbd 5ea7 233c d351 30bd
00000340: 9277 8c3a 02d9 29bd 8adb 0fbd e7c1 1abb
00000350: 78cd 8cbc 77b6 01bc 0fc2 76bb 4668 e93b
00000360: e7f2 003d 0719 c5bc 6228 d63c 64be a2bc
00000370: 9829 a13c 4e45 44bb 9c87 8b3c 0828 92bb
00000380: 3927 af3c e052 31bc 1ce5 f13a 39fd 72bc
00000390: 164c c5bc 8669 e03c d622 a4bb e759 7a3b
000003a0: b77c 413c 2213 163d 13b3 ba3c 7186 0dbd
000003b0: 5f4b c8bc e147 a43a 1c9a 02bc c1a0 25bd
000003c0: b60d 84bd 4adb 863d f7fe 963c 0dcf 163c
000003d0: 8ecd 7d3c 5074 0cbd 058a 86bd 12ca 5c3c
000003e0: f6ed 073d 87fd 91bc 131b 9fbc d49b 303c
000003f0: 80ff 29bc af3c ab3c 7191 3fbc 335d 353d
