tsv_info/qwen/layer_15/tsv_layer_15.npy (npy, 14464 bytes, 1 tensors)

array f4 [3584]
000000 41 f4 ba 3d 49 5c 8c 3c ac 81 8a 3c 25 54 fe bd
       0.09128619 0.017133849 0.016907535 -0.12418393
000010 db 5c 90 bd d6 37 fd bd 11 f2 9f bc aa 64 8c bc
       -0.07048961 -0.123641655 -0.019524606 -0.017137844
000020 4c 50 3d 3e 07 d6 cf 3d 34 58 e9 bc 2f 14 e1 bd
       0.18487662 0.10148244 -0.028484441 -0.10990178
000030 ca 4d af 3c 2a 2b 17 3c f8 1f 06 3e 2d 4e 92 3d
       0.021399397 0.0092266 0.13098133 0.07143817
000040 ea e0 16 3e e0 ac 3b 3d ee b1 f0 3c 9d c7 b4 bc
       0.14734235 0.045819163 0.029381718 -0.02206784
000050 d4 f3 02 3e 1e 72 cf bd 5d a2 48 3c 79 43 3a 3d
       0.12788326 -0.10129188 0.012245742 0.045474503
000060 2c a3 e8 3d 6a 2c ae bd 0d d5 8d bd bf f6 e2 3d
       0.113592476 -0.08504565 -0.06925402 0.11082219
000070 27 df b4 bd fc 3d f2 3c c2 b0 37 bd f1 45 ea 3d
       -0.088316254 0.029570572 -0.044846304 0.114391215
000080 86 21 3b 3e c5 74 a1 bd f1 5b 0c be ef 34 0e bd
       0.18274507 -0.078836 -0.13706948 -0.03471845
000090 a7 fe 29 be 08 7d 1c be c4 81 a5 bd e8 d1 27 3d
       -0.16601048 -0.1528207 -0.080813915 0.040971667
0000a0 e9 0e 04 3e b2 b8 93 bd ac 51 92 bd 25 4d 01 3e
       0.12896313 -0.07212962 -0.07144484 0.12627085
0000b0 7b 2b 3d bd 51 86 22 bd e6 a7 17 3e 2e 3f 83 bd
       -0.046184044 -0.039678875 0.14810142 -0.06408535
0000c0 2f 0f a6 bd 20 ae 12 3e 1d e9 bc bd 55 92 db 3c
       -0.08108365 0.14324236 -0.0922415 0.026803175
0000d0 4b 90 0f bd 8b f7 f0 bc ab 5b 13 3e bf 9b a8 3d
       -0.035049718 -0.029414913 0.14390437 0.08232831
0000e0 27 96 3c bd ea c5 0b be 50 1e d5 bd 32 9d 3a bc
       -0.046041634 -0.13649717 -0.10406172 -0.011390017
0000f0 67 9f 24 3e f3 71 4a 3e b7 95 96 bd a2 5a f0 3b
       0.16076432 0.1977003 -0.073527746 0.007335023
000100 94 a1 bc 3c ee 5d 3a bd e2 7a 64 3c 2a 49 c5 bd
       0.023026265 -0.045499735 0.013945313 -0.096330956
000110 fc 85 ec bd 22 3a 8f bd 40 fd 0e be 17 a4 96 bd
       -0.11548993 -0.0699351 -0.13963795 -0.073555164
000120 9f 95 e4 bc 5c ff dd bd 33 2f 23 be a7 e2 fc bd
       -0.027903376 -0.108397216 -0.15935974 -0.12347918
000130 a2 47 a0 bd bd 0d b5 3d 70 ec 02 be 30 e2 40 3b
       -0.07826163 0.08840511 -0.12785506 0.0029431693
000140 0a a8 19 be bf 4e cf bd 36 4a eb 3d 6c 7f 3e 3e
       -0.15005508 -0.101224415 0.11488764 0.18603295
000150 96 05 a7 3d eb 31 35 3e b1 a3 24 3e 61 25 c0 bd
       0.08155362 0.17694823 0.16078068 -0.093821295
000160 48 4a 1b bd 99 d3 0a 3d 84 19 06 be 96 25 6b bd
       -0.037912637 0.0338932 -0.13095671 -0.05740889
000170 fa ff 97 bd be c5 bd 3c 86 1f 73 bb 0e 11 29 3d
       -0.074218705 0.02316558 -0.0037097647 0.04127603
000180 37 b3 ac 3d 42 34 98 3d df f8 45 3d 5f ce 05 3e
       0.0843262 0.074318424 0.048333045 0.13067006
000190 6a 72 bd bd 56 9f 23 bd bf dc 2d 3d 11 bb fb bd
       -0.092503384 -0.039946876 0.042446848 -0.122915395
0001a0 f2 8e e3 3d 6a ac af 3c 21 03 29 bd 3e a3 cc 3d
       0.11111249 0.021444518 -0.04126275 0.099920735
0001b0 a8 76 c7 3c e9 3a de 3c 0c ab 26 bd 8d dc fd bd
       0.024348572 0.0271277 -0.040690467 -0.12395582
0001c0 f1 48 34 3d ef 69 ac 3d cc 52 08 be a5 f8 47 bd
       0.044014875 0.08418643 -0.13312835 -0.04882111
0001d0 9d 95 c8 bd f1 6a 30 bd 8d d9 aa 3d 16 ca e2 3c
       -0.097941615 -0.043070737 0.08342276 0.027684253
0001e0 d4 0c 0e 3d 7b 51 e3 bd 8b c6 72 3d 0c d1 cf bd
       0.034680203 -0.110995255 0.059271377 -0.101472944
0001f0 dc 36 ee 3d ac db 00 bd 62 23 9a 3d aa 44 f6 3d
       0.11631557 -0.031459495 0.0752628 0.120248154
000200 fa 1a e5 bd 4c be 82 bd 85 13 24 3e 9c 24 06 be
       -0.11186786 -0.063839525 0.16023071 -0.13099903
000210 83 0d 52 be bd 8d da 3d 27 bb 1d 3e 02 ed 27 3d
       -0.20512967 0.10671566 0.15403424 0.040997513
000220 4b 44 46 3e 87 d5 9e bd 59 0e 46 3b c0 d7 d1 bb
       0.19361989 -0.07755571 0.0030220954 -0.006403893
000230 ee 5c 2e bd 85 15 14 3e 1f c4 f9 3d ee 3a c0 bd
       -0.042569093 0.14461334 0.1219561 -0.0938624
000240 43 5f 14 3e 38 36 bc 3c c8 14 30 3c 66 b8 e6 3c
       0.14489464 0.022975072 0.010747142 0.0281641
000250 e8 2b 1b 3e eb 2d 1d 3e c5 4b 23 be 5e 14 9e 3d
       0.15153468 0.15349548 -0.15946873 0.077187285
000260 61 42 f5 3d fa ee 08 3e c8 8c b1 3d f9 9d 5c 3d
       0.119755514 0.13372412 0.0866943 0.053861592
000270 53 18 14 3e b7 2f 49 bd 58 b0 1e bd 91 79 1a 3d
       0.14462404 -0.04911777 -0.038742393 0.03771359
000280 98 b8 a6 bd a2 b3 47 bd 35 f4 e9 bd 25 a1 31 3e
       -0.08140677 -0.048755296 -0.11423532 0.17346628
000290 74 c6 a7 3d cb c8 91 3d 82 cc 1e be 81 10 ae 3c
       0.08192149 0.07118376 -0.15507701 0.021248104
0002a0 55 26 91 bd 41 59 c1 3c fe 76 e8 3c 4f 4b 0d be
       -0.070873894 0.02360213 0.028377052 -0.13798259
0002b0 4e 93 18 3d 07 e0 a7 bc dd d4 78 bd 2f 35 22 be
       0.037249856 -0.020492567 -0.060749877 -0.158406
0002c0 27 6d 27 3e 38 3e ff 3d 79 30 37 bc bf 5c 1d be
       0.16350232 0.12463039 -0.01118099 -0.15367411
0002d0 12 6d 00 be 49 bf 10 3d 06 62 a9 3c 5b f5 c3 3d
       -0.12541607 0.035338674 0.020676624 0.09568282
0002e0 cd 94 69 3d 7f cb b1 bd 31 dc e2 3d d2 2a e1 3d
       0.057026673 -0.08681392 0.110771544 0.109944955
0002f0 df 77 d2 3b 8c dd 1c bd 58 5b b6 bd 1f b8 31 bd
       0.006422981 -0.03829722 -0.08904141 -0.043388482
000300 d4 83 90 3d 41 f0 01 3e 4e 27 1d 3e 44 db ee 3d
       0.07056394 0.12689306 0.15347025 0.11662915
000310 4c 0f f8 bd 94 6c 8e bd d5 54 cc 3c 40 c9 04 3d
       -0.12112293 -0.069543034 0.024942795 0.03241849
000320 8b 1e b4 bd 3a 7b 1a be b8 5d b9 3c 69 db b2 3d
       -0.08794888 -0.1508607 0.022627696 0.087332554
000330 f1 ab 17 3e 3c da 80 3d 13 ba 2a bd e0 e5 c6 3d
       0.14811684 0.06291625 -0.04168136 0.09711814
000340 db 5b 9c bd d8 44 3e bd 7c 63 0c 3d f3 20 00 3e
       -0.076347075 -0.046452373 0.034274563 0.12512569
000350 e2 ea f1 3d 3f 28 80 3d ed 00 8b bd 62 01 a8 3d
       0.118123785 0.06257676 -0.06787286 0.08203389
000360 0b cb 64 3d 5e 67 e9 3d 5a da 93 bd 58 92 b1 bb
       0.0558577 0.11396669 -0.07219382 -0.005419057
000370 b2 1e 16 be ff 5a 14 bc 63 02 12 3e fe 5c a2 3c
       -0.14660147 -0.009054898 0.14258723 0.019819733
000380 f9 4e fe 3c 03 c4 7f bd 09 81 34 be 74 09 32 be
       0.031043516 -0.06244279 -0.17627348 -0.17386419
000390 53 e5 f7 bd 12 92 16 3d d5 53 7e bc 5a 62 75 3d
       -0.12104287 0.036760397 -0.015522917 0.05990825
0003a0 04 13 9c 3d 58 14 e8 3c 74 36 bc bd 45 d1 0d 3d
       0.076208144 0.028330013 -0.091900736 0.034623403
0003b0 7a 53 35 bd 45 00 d7 bd cc 91 bf bd 5c 10 ec bd
       -0.044269063 -0.10498098 -0.093539804 -0.11526558
0003c0 b0 5a 9d 3d dc dc 8a 3d 2e b6 0d be 42 44 9c 3b
       0.07683313 0.06780407 -0.13839027 0.004768879
0003d0 7e e3 81 3d 0d d2 af 3d 3e 72 20 be 00 a8 c1 bb
       0.06342219 0.08584986 -0.1566858 -0.0059099197
0003e0 be 2a a3 bd 15 da 8e bd 54 c7 30 3d ef 2c 31 3e
       -0.07967137 -0.069751896 0.043158844 0.17302297
0003f0 45 f0 41 3b 54 a3 37 3c f4 12 83 3d b8 9a aa bd
       0.0029592675 0.011208374 0.064000994 -0.083302915
