TSV_llama3.1-8B_tqa/exemplar_num_32_num_selected_data_128/loss_original/attn/15/5/saved_vectors/tsv_layer_15.npy (npy, 16512 bytes, 1 tensors)

array f4 [4096]
0.015496763 -0.0051655513 -0.023113677 -0.01487937 -0.046261903 0.040155668 -0.022165773 0.006575329
0.0094687 0.024172844 0.014912095 -0.011069988 -0.037093837 -0.051719982 -0.01308796 -0.054133076
-0.013126571 -0.063411646 -0.009741648 0.08009155 0.0072869486 -0.052728925 0.024616268 0.020621538
0.057813063 -0.05790692 0.021879813 0.10628591 0.033635173 -0.02054562 0.018954895 0.021195779
-0.04093101 0.0051618265 0.044755895 0.025084414 -0.018483175 -0.09417495 0.021248598 0.050479658
0.0032863556 0.08522999 -0.013625799 -0.06563285 -0.06117288 -0.031046266 0.030525405 0.055686306
0.0020735569 -0.030227086 0.009589869 -0.04492387 -0.02820183 -0.03434712 0.032804213 -0.05584603
0.06418665 -0.030006612 -0.015572291 -0.016254429 0.00471026 -0.002971025 -0.055235084 -0.035269845
-0.0038846764 -0.033720955 0.10236302 -0.091241844 0.05943852 -0.046463493 0.012426839 -0.010841334
-0.03126013 0.0068987426 -0.072933026 0.051304378 0.05124469 -0.025647303 -0.03378879 0.017176775
0.08925391 -0.025556084 0.004476982 0.006366234 0.020068802 -0.022223959 -0.077016495 -0.01750148
-0.03613787 0.04317623 -0.072383516 -0.06511607 -0.071792476 0.030423194 0.010418101 0.014440578
0.0057819327 0.0672727 0.008123905 0.10217153 0.049950805 -0.010502846 -0.030620256 -0.016413266
-0.0016529182 -0.049313005 0.0075168465 -0.021384157 -0.028413739 0.08848433 -0.0519348 -0.06128081
0.0125656715 0.0040677176 -0.006833353 0.0078286 -0.037527878 0.036961507 -0.042374503 0.021030225
0.031610306 -0.04440967 -0.01734152 -0.06576026 0.015796322 0.077687666 0.0022222474 0.10160361
-0.004171109 0.031506695 0.013497185 0.029338157 0.034297764 0.066988245 -0.0058737756 0.04659879
0.05823771 -0.043847006 0.05101448 0.01811994 0.0033816057 -0.057040032 0.0044006575 0.03154805
0.008845906 0.07770134 0.02113378 -0.06664725 -0.05288951 0.015335701 0.056871474 0.037217334
0.043824524 -0.032282535 -0.036872778 0.013882639 -0.029683296 -0.048149105 -0.0346354 0.008000809
-0.033372223 -0.05162101 0.057704087 -0.018840907 -0.021137835 -0.018632764 -0.08139768 -0.052594393
-0.047223322 0.010213989 -0.004474977 -0.029489012 -0.008766409 -0.0042791925 0.047291745 0.043104276
-0.015936011 0.0191286 0.026722701 0.016072024 0.0011606016 0.009006672 -0.021601811 0.08048602
0.022442115 -0.009518498 -0.076794006 0.0012929443 0.033154316 0.015859995 -0.025193917 0.043605413
0.010711953 -0.05037099 -0.032154754 0.038118128 0.032503262 0.032187596 -0.0037779554 0.09354155
-0.0033030498 0.042697158 -0.075737074 -0.1122758 -0.023686325 -0.02195689 0.009715209 0.0061661056
0.015750406 0.08902832 0.055145238 0.0048905904 -0.044277284 -0.035636235 -0.023791108 -0.04239724
-0.049782127 0.007157057 -0.061717894 -0.0052708704 -0.05535132 -0.07786344 0.048976447 -0.024844134
-0.007587767 -0.04756873 0.13708377 -0.05456066 -0.014602347 0.023494571 0.031003421 0.058036808
-0.05688243 0.0782948 -0.004988595 -0.06884174 -0.031057183 0.010083509 -0.033762675 -0.016937114
0.067955464 0.020308806 0.018350303 -0.04906963 0.032562323 0.05887607 -0.082958706 -0.0318006
0.07833335 0.028400185 -0.009074016 0.02888399 -0.048726644 0.040143173 0.0086027235 -0.018488428
00000000: 23e6 7d3c c943 a9bb e558 bdbc 9ac8 73bc
00000010: 1f7d 3dbd 457a 243d ff94 b5bc dc75 d73b
00000020: 9b22 1b3c 2106 c63c dc51 743c e55e 35bc
00000030: b5ef 17bd 55d8 53bd e26e 56bc a5ba 5dbd
00000040: d410 57bc f7dd 81bd 6f9b 1fbc 0a07 a43d
00000050: 5bc7 ee3b 49fa 57bd 0ea8 c93c 80ee a83c
00000060: 64cd 6c3d ce2f 6dbd 4b3d b33c 6dac d93d
00000070: 09c5 093d 4a4f a8bc 4c47 9b3c c5a2 ad3c
00000080: 46a7 27bd 8a24 a93b f551 373d d47d cd3c
00000090: 076a 97bc ccde c0bd 8a11 ae3c c2c3 4e3d
000000a0: e65f 573b 108d ae3d be3e 5fbc 846a 86bd
000000b0: 6a90 7abd bd54 febc 6a10 fa3c 5317 643d
000000c0: 83e4 073b cb9e f7bc d31e 1d3c 1802 38bd
000000d0: 8607 e7bc 91af 0cbd b65d 063d cfbe 64bd
000000e0: 4a74 833d 6dd0 f5bc ec22 7fbc 0228 85bc
000000f0: 8658 9a3b 87b5 42bb 2f3e 62bd 1d77 10bd
00000100: 0e96 7ebb fc1e 0abd b4a3 d13d 01dd babd
00000110: ce75 733d 8150 3ebd f199 4b3c da9f 31bc
00000120: 9f0a 00bd d90e e23b e95d 95bd 8a24 523d
00000130: f4e5 513d 4b1a d2bc 1d66 0abd 4fb6 8c3c
00000140: c1ca b63d fe5a d1bc a6b3 923b d79b d03b
00000150: 5467 a43c 050f b6bc d3ba 9dbd 445f 8fbc
00000160: 4e05 14bd 8fd9 303d cf3d 94bd 935b 85bd
00000170: ef07 93bd 103a f93c afb0 2a3c 2d98 6c3c
00000180: 5e76 bd3b 45c6 893d 211a 053c 4f3f d13d
00000190: 3799 4c3d 2114 2cbc 55d7 fabc 1d75 86bc
000001a0: bba6 d8ba 6ffc 49bd e14f f63b d42d afbc
000001b0: eec3 e8bc 4637 b53d 96b9 54bd 9601 7bbd
000001c0: 3fe0 4d3c 7d4a 853b 52ea dfbb 8743 003c
000001d0: d5b6 19bd f364 173d e390 2dbd 9447 ac3c
000001e0: cf79 013d eae6 35bd ce0f 8ebc 51ad 86bd
000001f0: 4a67 813c b61a 9f3d 20a3 113b 8e15 d03d
00000200: ccad 88bb 2a0d 013d 4c23 5d3c 9356 f03c
00000210: d07b 0c3d 2231 893d cd78 c0bb 5fde 3e3d
00000220: aa8a 6e3d eb98 33bd 8ff4 503d 4570 943c
00000230: ee9d 5d3b cfa2 69bd 6433 903b 8738 013d
00000240: 6bee 103c e121 9f3d c020 ad3c 5a7e 88bd
00000250: aca2 58bd 9842 7b3c 10f2 683d 3471 183d
00000260: 5881 333d b13a 04bd e907 17bd 0274 633c
00000270: 622a f3bc ff37 45bd d9dd 0dbd d315 033c
00000280: 50b1 08bd 8d70 53bd 1f5b 6c3d 3f58 9abc
00000290: 4129 adbc bda3 98bc d4b3 a6bd 386d 57bd
000002a0: 3e6d 41bd 9358 273c d4a2 92bb f192 f1bc
000002b0: fca0 0fbc 7838 8cbb fdb4 413d 1c8e 303d
000002c0: 3d8c 82bc 95b3 9c3c 91e9 da3c 7aa9 833c
000002d0: 541f 983a b890 133c 48f6 b0bc dbd5 a43d
000002e0: 87d8 b73c 79f3 1bbc 2d46 9dbd 0378 a93a
000002f0: d2cc 073d d2ec 813c 7963 cebc 979b 323d
00000300: 3081 2f3c d051 4ebd b4b4 03bd c121 1c3d
00000310: 2422 053d 24d7 033d 9397 77bb b692 bf3d
00000320: fb77 58bb 37e3 2e3d 0a1c 9bbd dbf0 e5bd
00000330: d309 c2bc f0de b3bc 8a2c 1f3c 0b0d ca3b
00000340: ff06 813c 7b54 b63d f9df 613d 3f41 a03b
00000350: 195c 35bd 4df7 11bd 92e5 c2bc baa8 2dbd
00000360: 58e8 4bbd bf85 ea3b e7cb 7cbd 44b7 acbb
00000370: 11b8 62bd de76 9fbd 879b 483d ed85 cbbc
00000380: cea2 f8bb 6ed7 42bd b05f 0c3e 007b 5fbd
00000390: af3e 6fbc b077 c03c e3fa fd3c 01b8 6d3d
000003a0: 8dfd 68bd 0659 a03d 5e77 a3bb e6fc 8cbd
000003b0: a26b febc 4d35 253c bb4a 0abd b4bf 8abc
000003c0: 3c2c 8b3d a75e a63c 6053 963c 3dfd 48bd
000003d0: 1260 053d 0928 713d 41e6 a9bd 5941 02bd
000003e0: 3c6d a03d 81a7 e83c 2eab 14bc 1e9e ec3c
000003f0: 9795 47bd 2b6d 243d 70f2 0c3c 0b75 97bc
