TSV_qwen2.5-7B_tqa/exemplar_num_32_num_selected_data_128/loss_repulsion/res/27/5/saved_vectors/tsv_layer_27.npy (npy, 14464 bytes, 1 tensors)

array f4 [3584]
00000000: 088d 423e e6c0 3c3e 032e 453e 4a1d 393e
00000010: f3aa 3dbe cf8b 3fbe 43c1 43be fece 353e
00000020: 9c79 44be 496c 3cbe 1c27 3dbe c60e 3dbe
00000030: 9068 3b3e 7721 393e 9b33 4b3e c8f0 3c3e
00000040: 9238 3ebe bf49 3dbe 5227 433e 8b0a 3cbe
00000050: cdea 3a3e 9bbe 3b3e 266e 39be 5211 3e3e
00000060: 83d1 3cbe 5387 3bbe 226d 3e3e b364 2dbe
00000070: 0a6a 42be 249a 3fbe 987f 3f3e 2053 3fbe
00000080: 0499 1abe 746a 3e3e ff64 3d3e 836b 3b3e
00000090: c707 40be c4db 533e e149 403e e59f 3f3e
000000a0: 7874 3d3e 1767 3c3e b008 3fbe ddbf 3fbe
000000b0: d07a 413e 5cbc 3f3e 4efe 673e 511f 3f3e
000000c0: bc5a 39be 1a4a 3ebe 1e09 3f3e 9b68 423e
000000d0: e2f1 443e 4aaa 35be aafe 3b3e 5721 41be
000000e0: 0cc2 40be 6700 43be 32ba 413e 197d 38be
000000f0: 6902 3f3e 736a 3fbe 2a3d 7e3e b93c 4e3e
00000100: 8c7a 2c3e a676 3cbe 0514 2f3e 5666 3abe
00000110: 0480 43be 1a08 3ebe 7c39 3d3e 2d9f 3d3e
00000120: 8c15 41be 0d0e 3f3e d82c b23d e830 483e
00000130: a3c9 3ebe cbfe 3f3e aeee 3dbe f0e6 373e
00000140: 1b67 3ebe b12f 3bbe 581d 40be b547 403e
00000150: 0b9e 3b3e 1d5f 413e fa35 43be 15c1 433e
00000160: 8698 3b3e 7e50 3ebe 84a4 44be b4ea 133e
00000170: 9a42 3ebe 094f 41be 1469 413e ebfa 39be
00000180: 8bfd 3dbe 1211 a1bd c7c2 3b3e 0339 ba3c
00000190: 83a5 3cbe 208c 35be 4a63 393e 0621 3e3e
000001a0: 1c84 40be b84a 3bbe c504 3abe 7bc9 403e
000001b0: e581 3f3e c303 38be a293 1abe b56b 3ebe
000001c0: 4080 3d3e 2262 f63d 7a1d 3bbe 4e14 6e3e
000001d0: 0797 edbd ab1f 3bbe b4be 3f3e 306f a03c
000001e0: 82bd 2a3e 4e3c 3ebe 5e45 45be f757 35be
000001f0: e1fa 3d3e 54bb 48be 8190 3cbe 8a83 3cbe
00000200: b13b 5ebb 3fe4 3ebe 900d 2e3e 645c 3c3e
00000210: be29 413e 3d73 423e 3b44 3b3e f032 183e
00000220: 1dba 3e3e f1a9 41be 924f 40be f19b 243e
00000230: 7c2b 3c3e eebe 3c3e 28e4 5fbe d5d8 953e
00000240: a8b6 11be 8a29 3e3e 81f7 3ebe 51f5 40be
00000250: 1977 443e 06f7 3dbe c51f 3d3e 8e5f 3ebe
00000260: f5f0 3e3e 1386 3e3e 581b 3f3e cc6c 3fbe
00000270: 8e3c 42be 3ac4 44be 82c7 3ebe e4b8 41be
00000280: b1fa 3bbe 9afb 3f3e fd5a 763e 9f35 40be
00000290: ec52 403e 9a36 413e 4e63 863e 3fdf 3f3e
000002a0: b75c 3d3e 6dfd 543e b26c 403e dc6c 3fbe
000002b0: 3194 4a3e f03c 37be e543 45be ea59 38be
000002c0: 0bc3 3abe bd44 3cbe 2d35 3ebe c522 3cbe
000002d0: ecbc 483e 8004 3f3e ba01 42be bbae 33be
000002e0: 60c2 37be 08ce 3fbe 80c7 3c3e da5d 383e
000002f0: 30d6 40be ede3 3ebe 7955 6abe 21ab 3fbe
00000300: 12fd 3dbe 0fb4 413e 91f7 3dbe 3091 463d
00000310: 875c 3ebe e64c 3ebe 7a64 1d3e 0062 3f3e
00000320: a00e 38be ebcc 3b3e 7558 3e3e c613 343e
00000330: 5c93 403e 6ec4 3d3e 0d33 3abe 0102 3f3e
00000340: 07fc 3e3e 036c 31be 1d28 3e3e 108d 383e
00000350: e7b8 3cbe 203d 3ebe e0be 3c3e c99b 413e
00000360: fcc1 3f3e 5dd8 3fbe 3780 3cbe bfa2 3d3e
00000370: 8203 3fbe 73e5 3dbe 61ae 243e c841 403e
00000380: 0ae6 3d3e 1a80 3e3e b5d6 3dbe 7bbe 3ebe
00000390: 4e45 303e b1fe 553e 4c1b 40be 4be9 3b3e
000003a0: 9d5d 3fbe 0c28 3fbe 4e8e 40be a5d6 393e
000003b0: 21a1 3b3e 824c 3b3e c73a 523e 2cc3 2abe
000003c0: c33a 3dbe 038e 3bbe 5fdd 3d3e 101d 403e
000003d0: 12c2 88be 85d6 3d3e 06d9 3ebe ce05 413e
000003e0: 6604 41be 4a6e 40be e900 403e 6c2f 27be
000003f0: e270 3dbe 38c5 3dbe 9579 3f3e e009 3fbe
0.18999112 0.1843296 0.19255833 0.18077579 -0.18522243 -0.18705676 -0.19116692 0.17754743
-0.19187015 -0.18400683 -0.1847195 -0.18462667 0.18301606 0.18079172 0.19843905 0.18451226
-0.18576267 -0.18485163 0.19057968 -0.18363397 0.18253632 0.18334429 -0.18108425 0.18561295
-0.18439297 -0.18313341 0.18596318 -0.16932945 -0.18985763 -0.18711144 0.18701017 -0.18684053
-0.15097433 0.18595296 0.18495558 0.18302731 -0.18752967 0.20689303 0.18778183 0.18713339
0.1850146 0.183987 -0.18655658 -0.18725534 0.18894506 0.18724197 0.22655603 0.1866429
-0.18101019 -0.18582955 0.18655822 0.18985216 0.19232896 -0.17740741 0.18358865 -0.18860374
-0.18824023 -0.19043122 0.18918684 -0.18016471 0.18653263 -0.18692951 0.2482802 0.20140351
0.16843623 -0.18404636 0.1709748 -0.182031 -0.19091803 -0.18557778 0.1847896 0.18517752
-0.18855876 0.18657704 0.086999595 0.19549906 -0.18631606 0.1874954 -0.1854808 0.1795919
-0.18594019 -0.18279912 -0.18761194 0.18777354 0.18322007 0.18883939 -0.19063559 0.19116624
0.18319902 -0.18585393 -0.19203383 0.14445001 -0.18580094 -0.18877806 0.1888774 -0.18162124
-0.1855375 -0.07864584 0.1833602 0.022732263 -0.18422513 -0.17729235 0.18104282 0.18567285
-0.18800396 -0.18290222 -0.18165882 0.18826859 0.18701895 -0.17970185 -0.1509538 -0.18595774
0.18505955 0.12030436 -0.18272963 0.23249933 -0.11601072 -0.18273799 0.18725091 0.019584268
0.16673854 -0.18577692 -0.19264743 -0.17709337 0.18552734 -0.1960271 -0.18414499 -0.18409553
-0.003391009 -0.18641756 0.16997361 0.18394619 0.1886358 0.18989272 0.18287747 0.14863181
0.18625684 -0.18912484 -0.18780354 0.16075112 0.18375963 0.18432209 -0.21864378 0.29266992
-0.14229834 0.18570533 -0.18649103 -0.18843581 0.19186057 -0.18551263 0.1846915 -0.18591139
0.18646605 0.18605833 0.18662775 -0.18693846 -0.18968412 -0.1921548 -0.18630794 -0.18918186
-0.1835735 0.18748322 0.24058147 -0.18770455 0.18781632 0.18868485 0.26247638 0.18737505
0.18492399 0.207998 0.18791464 -0.1869387 0.19783093 -0.1789434 -0.19264181 -0.1800305
-0.18238465 -0.18385597 -0.18574972 -0.18372639 0.19603318 0.1865406 -0.18945971 -0.17547123
-0.17945242 -0.18730938 0.18435478 0.18004552 -0.18831706 -0.18641634 -0.22884168 -0.18717624
-0.1855357 0.18916343 -0.1855147 0.048478305 -0.18589984 -0.18584022 0.1537036 0.18689728
-0.17974329 0.18339889 0.18588431 0.17585668 0.18806213 0.18531963 -0.18183537 0.18653108
0.18650828 -0.1732636 0.1856999 0.18022561 -0.1842991 -0.18578005 0.18432188 0.18907084
0.18726343 -0.1873488 -0.18408285 0.18519114 -0.18653682 -0.18544559 0.16082145 0.18775094
0.18544784 0.18603554 -0.18538935 -0.1862735 0.17213938 0.20897938 -0.18760413 0.18350713
-0.18688054 -0.1866762 -0.18804285 0.18148287 0.18323185 0.18290904 0.20530234 -0.16676015
-0.18479447 -0.18315892 0.18541478 0.18761086 -0.26710564 0.18538864 -0.18637475 0.1884987
-0.18849334 -0.18792072 0.18750347 -0.16326684 -0.18500093 -0.18532264 0.18698724 -0.18656111
