tsv_info/qwen/layer_9/tsv_layer_9.npy (npy, 14464 bytes, 1 tensors)

array f4 [3584]
-0.03242813 -0.07277015 0.048783388 -0.014537567 -0.10530883 0.026872644 0.09975518 -0.041361343
0.07054132 -0.028447796 -0.03105503 -0.051317394 0.0030739536 -0.110857874 0.18756385 0.05530806
-0.058326483 -0.051322345 -0.07368104 0.1921407 0.06463885 -0.08822723 -0.009193481 -0.013256175
0.06606572 0.038180314 -0.043240234 0.11384544 -0.00962837 0.117140666 0.021592129 -0.021346463
-0.08878456 -0.07968398 -0.021676349 -0.017759405 0.05857296 -0.019059641 0.08884252 -0.058968116
-0.028107004 -0.023763964 -0.033508815 0.06622013 0.021779798 -0.14451034 0.115466505 -0.08926954
-0.06747318 0.060314313 0.013534246 0.07646141 -0.1414521 0.074246235 -0.11766456 -0.057005312
0.07613173 0.060823597 0.033286653 0.021164421 0.03030076 0.092613496 0.019129721 -0.049431052
-0.06755595 -0.13266923 0.017172229 0.04745522 0.091229215 0.043233786 -0.0874288 0.0022569795
-0.0065526622 -0.05224344 -0.0039229384 0.06579122 -0.04461087 0.028554093 -0.07013543 -0.03040405
0.03205329 -0.10020376 -0.04788666 -0.0038130633 -0.023511939 0.051006436 0.026740655 -0.045810733
-0.04239517 0.024879174 -0.087750845 0.021845814 0.013225135 -0.019515892 0.095170245 0.021332463
-0.1393787 0.0227207 0.08365404 -0.010302822 -0.05633818 -0.07801039 -0.046172705 0.111980386
0.1257622 0.029360285 0.0074517415 -0.055668827 0.029722286 0.06874883 -0.064464465 -0.045821518
-0.08695245 -0.11450898 0.10923942 -0.05182094 -0.0073387567 -0.10001232 -0.087023176 -0.008326146
0.10215181 -0.08976222 -0.0025464713 0.024844116 -0.030574623 -0.098235615 0.030256437 -0.12241062
-0.13000743 -0.1966389 -0.09669168 -0.0007260662 0.012645119 0.012138914 0.105376676 -0.056536004
0.03725548 0.099568926 0.059552297 -0.05956283 -0.035075262 -0.06750904 0.006824391 0.06760291
0.14720535 0.020243717 -0.012348735 0.0052839555 0.059675016 0.05397125 -0.051968463 0.015232325
-0.12494918 -0.09712474 -0.10103577 0.05660442 0.06921395 0.10570129 -0.05243115 -0.026589707
-0.0415873 -0.07327785 0.07439258 0.04507902 -0.14000443 0.048498712 -0.08867089 0.06256645
0.05225038 -0.19491848 -0.06866075 -0.040257964 -0.10082417 0.011606908 0.008695693 -0.039313592
-0.113192685 -0.08799448 -0.1103015 -0.048024006 -0.04282058 0.10388345 0.0514223 -0.0078003854
0.03787218 0.17036115 -0.017621381 0.002229323 -0.08782967 -0.0028003529 0.10452981 -0.051238514
-0.021794505 0.048344735 0.03776685 -0.026845962 -0.020417964 0.0092718955 -0.10840093 0.07984808
0.04319825 0.07761551 -0.07300172 0.03894501 -0.021021893 -0.11086707 -0.13875766 -0.03480754
-0.03585316 0.15479752 0.16206972 -0.09366904 -0.02728465 0.06470965 0.055766787 -0.027577166
-0.085868634 0.062448334 0.018963145 0.13789058 0.06667899 -0.0606218 0.013327662 -0.09756975
-0.004623673 -0.073179305 -0.08756778 -0.06042284 0.005405863 0.017745335 0.04872708 -0.058832414
-0.007915553 0.05679881 0.12154004 -0.020677902 -0.037707113 -0.03699546 -0.13031746 0.06456035
-0.01627342 0.017292498 0.010166185 0.025909873 0.028380342 0.07743707 -0.03519427 0.03188663
-0.07071509 0.0866555 0.04797924 -0.04423434 -0.05772035 -0.11544058 -0.10238771 0.009144712
00000000: 5cd3 04bd 8408 95bd 17d1 473d fa2e 6ebc
00000010: 28ac d7bd 0524 dc3c 724c cc3d 836a 29bd
00000020: f877 903d 5a0b e9bc 1e67 febc 3032 52bd
00000030: 6274 493b 7409 e3bd bd10 403e b48a 623d
00000040: c0e7 6ebd 6137 52bd 16e6 96bd 88c0 443e
00000050: 6061 843d 7ab0 b4bd 41a0 16bc 6e30 59bc
00000060: 774d 873d f662 1c3d ac1c 31bd cc27 e93d
00000070: 50c0 1dbc 72e7 ef3d fae1 b03c c7de aebc
00000080: aed4 b5bd 5b31 a3bd 9992 b1bc 2c7c 91bc
00000090: 33ea 6f3d f722 9cbc 11f3 b53d 8d88 71bd
000000a0: a940 e6bc a5ac c2bc 8a40 09bd 6b9e 873d
000000b0: 8c6b b23c 85fa 13be b479 ec3d f3d2 b6bd
000000c0: 612f 8abd 240c 773d bebe 5d3c cd97 9c3d
000000d0: d2d8 10be 690e 983d 1efa f0bd 677e 69bd
000000e0: f4ea 9b3d 2a22 793d 9657 083d 0261 ad3c
000000f0: 4d39 f83c 25ac bd3d efb5 9c3c 3778 4abd
00000100: c65a 8abd 71da 07be c6ac 8c3c 6860 423d
00000110: 62d6 ba3d e915 313d df0d b3bd d5e9 133b
00000120: b7b7 d6bb 38fd 55bd fe8b 80bb 8cbd 863d
00000130: e3b9 36bd 46ea e93c 2aa3 8fbd ea11 f9bc
00000140: 504a 033d a137 cdbd cd24 44bd 96e4 79bb
00000150: 1c9c c0bc 20ec 503d 380f db3c 09a4 3bbd
00000160: 8fa6 2dbd 69cf cb3c b7b6 b3bd fef5 b23c
00000170: 3dae 583c cbdf 9fbc 9ee8 c23d 6bc1 ae3c
00000180: 4ab9 0ebe c320 ba3c cf52 ab3d 2bcd 28bc
00000190: ddc2 66bd e9c3 9fbd 971f 3dbd f955 e53d
000001a0: cec7 003e fb84 f03c bd2d f43b ff04 64bd
000001b0: 277c f33c 30cc 8c3d f205 84bd 58af 3bbd
000001c0: 2014 b2bd af83 eabd ebb8 df3d 3242 54bd
000001d0: f479 f0bb 42d3 ccbd 3539 b2bd 636a 08bc
000001e0: f834 d13d 41d5 b7bd b3e2 26bb e385 cb3c
000001f0: a277 fabc c12f c9bd 59dc f73c 6bb2 fabd
00000200: ab20 05be b55b 49be 4a06 c6bd 7a55 3eba
00000210: 792d 4f3c 4ce2 463c bacf d73d 4c92 67bd
00000220: 3499 183d cbea cb3d 1ced 733d 27f8 73bd
00000230: 14ab 0fbd 2e42 8abd 249f df3b 6573 8a3d
00000240: 00bd 163e 27d6 a53c 5952 4abc 0825 ad3b
00000250: ca6d 743d f510 5d3d e2dc 54bd 0091 793c
00000260: 5be5 ffbd 56e9 c6bd d7eb cebd 09da 673d
00000270: 0bc0 8d3d eb79 d83d 0cc2 56bd a8d2 d9bc
00000280: 7257 2abd b312 96bd 235b 983d c7a4 383d
00000290: 525d 0fbe 96a6 463d 1599 b5bd d722 803d
000002a0: 7f04 563d b698 47be 029e 8cbd 89e5 24bd
000002b0: e77c cebd e72a 3e3c 6178 0e3c 4a07 21bd
000002c0: 91d1 e7bd 7336 b4bd c1e5 e1bd d2b4 44bd
000002d0: a264 2fbd d9c0 d43d 31a0 523d 609a ffbb
000002e0: dc1f 1b3d 2773 2e3e b75a 90bc d519 123b
000002f0: 0be0 b3bd 2086 37bb ba13 d63d 7adf 51bd
00000300: 648a b2bc 2105 463d 6ab1 1a3d 10ec dbbc
00000310: 9343 a7bc 26e9 173c 4f01 debd 6487 a33d
00000320: a6f0 303d e1f4 9e3d ed81 95bd ce84 1f3d
00000330: 1b36 acbc 460e e3bd 7d16 0ebe 5a92 0ebd
00000340: c3da 12bd 3e83 1e3e 9bf5 253e 8ed5 bfbd
00000350: 0f84 dfbc 7e86 843d b76b 643d 82e9 e1bc
00000360: e5db afbd d3c9 7f3d 9958 9b3c 3033 0d3e
00000370: ff8e 883d 914e 78bd 445c 5a3c a6d2 c7bd
00000380: 2e82 97bb 08df 95bd bc56 b3bd f17d 77bd
00000390: aa23 b13b aa5e 913c 0c96 473d 42fa 70bd
000003a0: 3cb0 01bc dea5 683d fce9 f83d b464 a9bc
000003b0: c672 1abd 8d88 17bd f171 05be 3738 843d
000003c0: d64f 85bc ffa8 8d3c 1290 263c f140 d43c
000003d0: e47d e83c 5497 9e3d de27 10bd 8e9b 023d
000003e0: 13d3 90bd 7078 b13d e185 443d 112f 35bd
000003f0: 2c6c 6cbd 1c6c ecbd a6b0 d1bd b4d3 153c
