TSV_qwen2.5-7B_tqa/exemplar_num_32_num_selected_data_128/loss_repulsion/res/15/5/saved_vectors/tsv_layer_15.npy (npy, 14464 bytes, 1 tensors)

array f4 [3584]
0.09210792 0.018147847 0.017590404 -0.12353581 -0.07030084 -0.1237902 -0.022936935 -0.01690285
0.18615183 0.101948954 -0.028246267 -0.109501444 0.023789281 0.009435871 0.13061206 0.07172807
0.14717431 0.04346831 0.02836221 -0.021759719 0.12833202 -0.10118354 0.011080618 0.04478553
0.11238554 -0.0836821 -0.06902733 0.110787116 -0.09009417 0.030839257 -0.045318227 0.117236115
0.1825116 -0.07899677 -0.13644291 -0.031714313 -0.16506945 -0.15348329 -0.08215845 0.039191794
0.1286384 -0.072442375 -0.07245272 0.12544446 -0.043968428 -0.04109362 0.14939079 -0.06302432
-0.08170974 0.14440988 -0.09347619 0.026663668 -0.034681004 -0.030459806 0.14288408 0.07987365
-0.046519574 -0.13558766 -0.10436735 -0.010438962 0.16049643 0.1991539 -0.073209964 0.006429919
0.022854619 -0.04532338 0.011004225 -0.09692888 -0.114940695 -0.06918478 -0.13918325 -0.074552774
-0.030042825 -0.1075889 -0.1584799 -0.12453109 -0.08128925 0.08838336 -0.12778232 0.002973026
-0.14941673 -0.10155167 0.11415959 0.18611753 0.07978331 0.17755109 0.159742 -0.0934066
-0.038627118 0.035328403 -0.13190132 -0.058529753 -0.07364512 0.022627518 -0.0045117117 0.043795347
0.08482632 0.07304591 0.048196483 0.1300443 -0.09278717 -0.04154312 0.042608242 -0.12373319
0.110794075 0.020599691 -0.040048383 0.09968561 0.025302513 0.024519647 -0.04092954 -0.12368352
0.04363848 0.08254314 -0.13317417 -0.050046165 -0.096785314 -0.043229233 0.0837993 0.02517968
0.03505388 -0.11167462 0.05815763 -0.10111693 0.12000618 -0.030771222 0.076992586 0.11919099
-0.11226393 -0.06450425 0.16127506 -0.13007358 -0.20530061 0.10677272 0.15359733 0.03955614
0.19330086 -0.07676686 0.002046021 -0.0052972436 -0.0445343 0.14419435 0.11991769 -0.09351806
0.1428242 0.023226026 0.0127111925 0.028836302 0.15260209 0.15335359 -0.1604679 0.07777621
0.118618995 0.13336642 0.084314704 0.052659176 0.14587942 -0.04832304 -0.037308846 0.038313914
-0.081378914 -0.04970329 -0.11415574 0.17356102 0.08227693 0.0666752 -0.15653747 0.021154758
-0.06959237 0.022959532 0.028708128 -0.13847356 0.035483155 -0.019603714 -0.059975587 -0.15586287
0.16296344 0.12611678 -0.011550194 -0.15363376 -0.12659036 0.03597764 0.0197585 0.09538888
0.056510374 -0.08799381 0.11046948 0.11143717 0.0077152248 -0.03738183 -0.09090196 -0.045249093
0.0711864 0.12797038 0.15432331 0.116588786 -0.121885 -0.07061345 0.023941487 0.0339476
-0.08616208 -0.14952481 0.021723632 0.089362465 0.14711653 0.064078875 -0.041870847 0.09755695
-0.07622669 -0.04592818 0.036130708 0.12499543 0.11840575 0.06325166 -0.06573395 0.08290264
0.054626398 0.11391817 -0.0700658 -0.004569425 -0.14747162 -0.009294644 0.14275552 0.019665068
0.030028421 -0.06546679 -0.176948 -0.1737242 -0.121491805 0.036151886 -0.015696272 0.05888444
0.078136556 0.02713921 -0.092399165 0.033860285 -0.04299641 -0.10495429 -0.09383224 -0.11551764
0.0773377 0.06789638 -0.13689108 0.0025948666 0.06351676 0.08532993 -0.15807348 -0.0056672734
-0.07901986 -0.06960243 0.040757813 0.17175919 0.0011723592 0.01140693 0.064675696 -0.08356571
00000000: 14a3 bc3d cbaa 943c c019 903c 5800 fdbd
00000010: e3f9 8fbd b785 fdbd 3de6 bbbc d877 8abc
00000020: 969e 3e3e 9dca d03d b764 e7bc 4b42 e0bd
00000030: bde1 c23c e998 1a3c 2bbf 053e 2be6 923d
00000040: ddb4 163e d40b 323d de57 e83c 7041 b2bc
00000050: 7869 033e 5139 cfbd 7b8b 353c 0871 373d
00000060: 642a e63d 8561 abbd 335e 8dbd 5be4 e23d
00000070: 4b83 b8bd 9ca2 fc3c 9b9f 39bd 7d19 f03d
00000080: 52e4 3a3e 0fc9 a1bd b1b7 0bbe dee6 01bd
00000090: f707 29be b92a 1dbe b042 a8bd 9387 203d
000000a0: c9b9 033e ab5c 94bd 1762 94bd 8374 003e
000000b0: 3d18 34bd c951 28bd e6f9 183e e512 81bd
000000c0: 7057 a7bd 2fe0 133e 7270 bfbd c46d da3c
000000d0: ab0d 0ebd d886 f9bc 3450 123e cc94 a33d
000000e0: 4f8b 3ebd 7ed7 0abe 8dbe d5bd 2e08 2bbc
000000f0: 2d59 243e 00ef 4b3e 1bef 95bd 12b2 d23b
00000100: 9c39 bb3c 02a5 39bd 114b 343c a682 c6bd
00000110: 0766 ebbd c0b0 8dbd 0e86 0ebe 20af 98bd
00000120: 5f1c f6bc 9257 dcbd 8e48 22be 280a ffbd
00000130: fa7a a6bd 5602 b53d 5ed9 02be 19d7 423b
00000140: b300 19be 52fa cfbd 81cc e93d 9895 3e3e
00000150: 6f65 a33d f4cf 353e 6893 233e f64b bfbd
00000160: 7837 1ebd 84b4 103d 2411 07be e5bc 6fbd
00000170: 41d3 96bd 585d b93c fbd6 93bb c062 333d
00000180: 6cb9 ad3d 1899 953d ad69 453d 552a 053e
00000190: 3307 bebd 1e29 2abd fb85 2e3d d467 fdbd
000001a0: 01e8 e23d afc0 a83c c609 24bd f827 cc3d
000001b0: 3747 cf3c 6ddd c83c bca5 27bd c94d fdbd
000001c0: 43be 323d 610c a93d cf5e 08be 35fd 4cbd
000001d0: 6137 c6bd 2311 31bd f89e ab3d 9e45 ce3c
000001e0: a894 0f3d aab5 e4bd b236 6e3d 6516 cfbd
000001f0: cdc5 f53d ee13 fcbc 4aae 9d3d 681a f43d
00000200: a2ea e5bd ce1a 84bd 4a25 253e 0232 05be
00000210: 533a 52be a8ab da3d 9e48 1d3e 9e05 223d
00000220: a9f0 453e f237 9dbd 8916 063b 8094 adbb
00000230: 9969 36bd afa7 133e 6897 f53d 6686 bfbd
00000240: 8240 123e 8244 be3c 9b42 503c 1c3a ec3c
00000250: b943 1c3e b908 1d3e b251 24be 2249 9f3d
00000260: 84ee f23d 3591 083e 30ad ac3d 26b1 573d
00000270: 6a61 153e 61ee 45bd 29d1 18bd 0def 1c3d
00000280: fda9 a6bd ad95 4bbd 7cca e9bd fbb9 313e
00000290: cf80 a83d 028d 883d 5c4b 20be be4c ad3c
000002a0: 7286 8ebd a115 bc3c 4f2d eb3c 03cc 0dbe
000002b0: c956 113d f897 a0bc f6a8 75bd 849a 1fbe
000002c0: e3df 263e c224 013e 063d 3dbc 2b52 1dbe
000002d0: e7a0 01be 4a5d 133d 94dc a13c 3f5b c33d
000002e0: 6c77 673d 1936 b4bd d33d e23d 2c39 e43d
000002f0: ffcf fc3b b11d 19bd cf2a babd 1d57 39bd
00000300: 2dca 913d ab0a 033e ee06 1e3e 1ac6 ee3d
00000310: d89e f9bd c99d 90bd f020 c43c a30c 0b3d
00000320: bf75 b0bd 081d 19be c2f5 b13c ab03 b73d
00000330: b7a5 163e c93b 833d c480 2bbd f0cb c73d
00000340: bd1c 9cbd 301f 3cbd cbfd 133d 9bfd ff3d
00000350: b77e f23d 168a 813d 859f 86bd dcc8 a93d
00000360: eebf 5f3d ee4d e93d a87e 8fbd 1dbb 95bb
00000370: cd02 17be 9048 18bc 812e 123e a318 a13c
00000380: 2afe f53c 7413 86bd db31 35be c2e4 31be
00000390: b2d0 f8bd 0014 143d 7895 80bc d030 713d
000003a0: 0f06 a03d 0c53 de3c c63b bdbd 15b1 0a3d
000003b0: 011d 30bd 46f2 d6bd 1e2b c0bd 8394 ecbd
000003c0: 3a63 9e3d 420d 8b3d 2d2d 0cbe a30e 2a3b
000003d0: 1315 823d 75c1 ae3d 04de 21be 89b4 b9bb
000003e0: 2ad5 a1bd b88b 8ebd aaf1 263d a4e1 2f3e
000003f0: d9a9 993a 22e4 3a3c b174 843d 8024 abbd
