TSV_llama3.1-8B_tqa/exemplar_num_32_num_selected_data_128/loss_repulsion/attn/9/5/saved_vectors/tsv_layer_9.npy (npy, 16512 bytes, 1 tensors)

array f4 [4096]
000000 ac 49 43 bd 83 71 cd 3c b7 82 3e 3d f6 82 b9 bc
       -0.04767768 0.02507854 0.04651138 -0.022645455
000010 20 85 fc 3c 90 99 59 bc ec bb 12 bd b4 73 c1 bc
       0.030825198 -0.013281241 -0.035823748 -0.023614742
000020 45 b4 09 3d 7a 68 dc bc e3 6d 9a bc a7 32 c8 3a
       0.033619184 -0.026905287 -0.018851226 0.0015273885
000030 6a cb c7 bb a2 d9 0f 3d 81 5c c5 bc e2 4d 13 bd
       -0.006097247 0.03511966 -0.02409196 -0.035962947
000040 83 c3 c0 bc b5 99 1e bd a8 67 5b 3b e1 d7 1d bd
       -0.023530727 -0.038720805 0.0033478532 -0.038535956
000050 bd a9 26 bd b1 2f ba 3b 42 4b 1a 3c 37 22 e1 ba
       -0.04068922 0.005681955 0.009417357 -0.0017176335
000060 9a 15 bc 3c 07 19 e7 bb 28 cc 0c 3d e9 58 0b bd
       0.02295952 -0.007052544 0.034374386 -0.03402034
000070 aa 91 7a 3c db cb 0b 3c f2 30 53 bb 14 5e 27 3d
       0.015293518 0.00853249 -0.0032225219 0.040861204
000080 0e e7 41 3c 82 36 f7 3c b8 c0 00 bd 49 5b e1 38
       0.011834873 0.030177359 -0.03143379 0.00010745839
000090 94 fc be 3b 12 f6 2d bc fb c6 32 bd 60 fa e5 3c
       0.0058284495 -0.01061775 -0.043646794 0.02807349
0000a0 1f 35 f8 bc 8b f9 8c bc b1 4e 7b bb 2d 4f 80 3d
       -0.030298768 -0.017208835 -0.0038346464 0.062651016
0000b0 80 a9 f9 3b b5 24 f5 3c 01 b4 ad 36 15 78 9c 3a
       0.007619083 0.02992473 5.176757e-06 0.0011937643
0000c0 d1 5e 90 3d 5c ca 3f 3d 2a 12 38 3d a5 53 19 3c
       0.07049335 0.046823844 0.044939198 0.009358321
0000d0 c3 59 ce bc 01 8f 38 bd 03 c1 01 3d 7f 86 20 bc
       -0.025189286 -0.045058254 0.03167821 -0.009797691
0000e0 26 d5 d3 bb 0f 21 64 bb da 02 83 3c 9d ee 20 bd
       -0.0064646183 -0.0034809744 0.01599257 -0.03929006
0000f0 1b a5 d9 3c fb 5e ab bc dd 9b 3c bd e2 0b 3f bd
       0.026567986 -0.020919314 -0.04604708 -0.04664219
000100 cd 6c c5 bb 2d 1f df bb a6 c8 75 3d 4b 70 34 3d
       -0.006024933 -0.0068091364 0.060005806 0.044052403
000110 10 2a 3a bd f8 ab 1d bd 69 7f 83 bd 61 67 4d 3d
       -0.04545027 -0.03849408 -0.06420786 0.050147418
000120 26 63 b4 bc 3c f6 aa 3c da 86 2e bd 7f ba 5a bd
       -0.022019934 0.020869367 -0.042609073 -0.053400513
000130 25 cc a1 bc f0 ca 52 bc ad 76 e1 bd 4c cb d0 3b
       -0.019750664 -0.012865767 -0.11008964 0.006371891
000140 49 a0 97 bc d3 cc 51 3d 94 9a b1 3d ec be 84 bc
       -0.018509047 0.051220726 0.086720616 -0.01620432
000150 c2 7e c9 3c 4d d6 1b bb 8e 6f 31 bc c0 75 aa bc
       0.024596576 -0.0023778856 -0.010829819 -0.0208081
000160 a5 0d d9 bb 55 09 fa 3c ca fa ea 3b 58 7c 31 bb
       -0.006623941 0.030522028 0.0071710097 -0.0027082171
000170 a5 90 90 bc 3a 4a b4 3c 40 6b 1e 3d 8d 5a 08 bc
       -0.017647097 0.02200805 0.0386765 -0.00832237
000180 4e 66 14 3c 6c 29 be bc 3a 45 98 39 50 21 84 3c
       0.009057594 -0.02321311 0.00029043277 0.016129166
000190 ac cf 2f 3b cd c1 a2 bc 73 62 df 3a 50 d7 84 bc
       0.0026826663 -0.019867802 0.001704289 -0.01621595
0001a0 00 5d 88 bd 61 7e 39 3d a1 f0 8b bc 7d 59 9c bd
       -0.06658363 0.04528654 -0.017082514 -0.07634256
0001b0 98 cd 49 3d 0f 54 5d 3d 99 c7 32 3c b6 c1 bc 3c
       0.049268335 0.054035243 0.010911846 0.023041587
0001c0 a7 d6 44 3d 29 41 8a bb 64 bc 70 3c 21 68 f7 bc
       0.04805627 -0.0042191935 0.014693353 -0.03020102
0001d0 19 34 5b bd 31 84 b1 3c fe 94 af bb c3 05 9a bd
       -0.05351648 0.02166948 -0.0053583374 -0.0752063
0001e0 d3 7b c2 3c 66 4c 1f 3c f6 fa 97 3c 47 f4 5f bc
       0.023740685 0.009722805 0.018552285 -0.01366908
0001f0 b8 16 5d bd dd be 06 3c 9f ab 12 3d 9b 37 59 3d
       -0.053976744 0.008224216 0.035808202 0.053031545
000200 f8 bb 7f bc e1 6e ce 3c 10 6f 46 bc e6 6d 34 3c
       -0.01560878 0.025199356 -0.01211144 0.01101253
000210 32 33 72 3c 72 12 a1 bb 98 1a 29 3d 80 ff ea 3c
       0.014782714 -0.004915529 0.041285127 0.028686285
000220 29 7f fa 3c 50 4c 85 3b 1c ce cb 3c 66 a5 b7 3c
       0.030578213 0.004067935 0.024878554 0.022417735
000230 84 aa 87 3c 10 ba 45 bd f4 3c 93 bc 53 06 ee bc
       0.0165608 -0.048273146 -0.0179734 -0.02905575
000240 e3 42 aa bc 09 e2 57 3d 6c a0 b0 3c e6 db 15 3c
       -0.020783847 0.0527058 0.02156087 0.009146666
000250 e8 87 04 3c eb 28 e1 3c 37 f4 64 3d 00 96 0a 3d
       0.008089043 0.027485332 0.055896964 0.033834457
000260 23 92 8c bc 98 c5 15 bd 08 59 93 3c 51 07 03 3d
       -0.017159527 -0.036565393 0.01798679 0.0319894
000270 57 6c 80 3c 2d 41 32 bd bf 2d 9b bc 2c f2 21 3d
       0.01567666 -0.043519188 -0.018942712 0.039537594
000280 15 8c cf bc a2 8d 61 3d 66 5d 44 3b 91 46 1e bd
       -0.025335351 0.055066712 0.0029962896 -0.038641516
000290 3e 7b 7f 3c 19 ac 37 3d 98 76 d0 bb dd f2 d3 bc
       0.015593348 0.04484186 -0.0063617937 -0.025872642
0002a0 bd 3a d9 bc 3a 8a 40 bc 4d 64 45 bc 17 e0 82 3d
       -0.026517266 -0.011751706 -0.012047839 0.06390398
0002b0 44 1d 9f bb ae ab 21 bc 8c fb 00 bd 7c 1a 25 3d
       -0.0048557837 -0.009867592 -0.031489894 0.04030846
0002c0 12 0a aa 3d bf 1c 16 3d 81 87 28 3c 70 b5 85 3c
       0.08302702 0.03664851 0.010286213 0.016321868
0002d0 30 bd 9f bb 4f 6f ef 3b 38 c6 93 3c ef 07 9b ba
       -0.004874848 0.00730697 0.018038854 -0.0011827926
0002e0 ab df 17 bb 72 df 8a bc 0f 84 04 bd 95 cc 8d bd
       -0.0023174088 -0.01695225 -0.032352503 -0.069237866
0002f0 21 fc f5 ba 30 cf 2b bb d3 de 18 bb d4 f8 96 3c
       -0.0018767157 -0.0026216023 -0.0023326173 0.018429197
000300 29 af 55 bd f1 c3 01 ba dd 8f 2c bd ad e5 9b bc
       -0.052169 -0.0004950157 -0.042129386 -0.019030416
000310 2c 3f b1 bb 8d 06 b5 3c 37 f6 0b bd 9c cc a0 3d
       -0.005409142 0.02209785 -0.034170356 0.07851526
000320 f9 18 7c bc 12 ed 3b 3d e2 f3 35 bd ed 35 d8 3c
       -0.015386813 0.045880385 -0.044422038 0.026392901
000330 3e 2a 26 bd 40 b6 a3 bc 82 a3 d3 3c b8 bd d5 3a
       -0.04056763 -0.019984365 0.025834803 0.0016307151
000340 57 ab a9 bc c4 a6 bc bc fe 6b 2e bd a7 04 30 bc
       -0.020711584 -0.023028739 -0.042583458 -0.010743297
000350 ea 99 91 bb 00 5f 2e 3c 66 52 59 bd 4f 9b 43 3d
       -0.004443397 0.010642767 -0.053057097 0.047755536
000360 c1 b2 12 bd 47 3c 90 3d 18 13 a2 3c 83 93 a8 bc
       -0.035815004 0.07042747 0.019784495 -0.020578152
000370 09 1b bf bb 7e 77 be bc f5 50 fd 3c 75 a9 58 3d
       -0.0058320803 -0.023250338 0.030922392 0.05289598
000380 27 7b 93 bd 12 61 93 3b 7d 13 f4 3a 42 27 62 bd
       -0.07201224 0.0044976557 0.0018621531 -0.05521322
000390 5f a8 c0 bc e7 fe c4 bc 0e 4b e7 bc fa fa 5e 3c
       -0.023517786 -0.024047328 -0.028234031 0.013609642
0003a0 28 0f 34 3c 8a 74 21 3a fc ec 55 bc 47 ee 36 bc
       0.010989942 0.0006159028 -0.01305699 -0.011165208
0003b0 2a 5f 96 3c 32 1b 9c bc bf bd 09 bd 8d 0b 1b 3d
       0.018355925 -0.019055936 -0.03362822 0.037852813
0003c0 fb bf 21 bd 18 87 92 3c d7 b8 5b 3c 87 74 92 39
       -0.039489727 0.017886683 0.0134107685 0.0002793411
0003d0 2b d3 13 3c 40 2a 7a bc 14 13 03 bd 15 4b e6 bc
       0.009022514 -0.015268862 -0.032000616 -0.028111974
0003e0 0e 99 46 3d d2 ac 26 3c 97 00 50 3c c3 6e c4 3c
       0.048485808 0.0101730395 0.012695453 0.023978597
0003f0 f2 37 7b bc 08 2a 03 bb 8c ca 69 3c a5 26 30 bc
       -0.015333163 -0.0020014066 0.014269482 -0.010751401
