TSV_llama3.1-8B_tqa/exemplar_num_32_num_selected_data_128/res/9/5/saved_vectors/tsv_layer_9.npy (npy, 16512 bytes, 1 tensors)

array f4 [4096]
-0.03160937 0.024561591 0.08053871 -0.022781817 -0.012420591 0.018127441 0.030164652 -0.060609233
0.0154571 0.026572395 0.017164204 -0.012389894 0.019983526 -0.017797882 -0.019354403 -0.010905225
0.004250619 -0.014863243 -0.026156561 -0.011219355 -0.016213357 -0.009354757 -0.029525802 0.014098594
0.043128207 -0.014537242 -0.038849823 0.039140143 0.044775587 -0.017676303 -0.0036063497 0.018547876
-0.006097441 0.013060402 -0.008858947 0.018199164 -0.005025156 -0.04754959 -0.003458205 0.03253744
-0.078058064 0.0402486 0.009623137 0.07864455 -0.011817695 0.009867719 0.0009041844 0.026777964
0.035542015 0.0352212 0.019711541 0.025952477 -0.049850803 -0.021666903 -0.013864286 -0.0019164659
0.036983345 0.017362917 0.018863985 -0.0017169929 0.009703597 -0.056240916 -0.02122504 -0.05767337
0.0011988602 -0.093123995 0.05901742 0.05283862 -0.031031905 -0.009506986 -0.016668823 -0.012343825
0.016910233 0.0065367324 0.013843066 0.0020960725 -0.0015760015 -0.0005142407 -0.038082402 -0.06241829
-0.0011902875 0.033752043 0.014636769 -0.046759013 0.013494236 0.03800898 -0.021369575 -0.012836556
-0.029292088 0.022885349 -0.0017178485 0.010843372 -0.06404992 -0.020201432 0.039941024 0.007966067
0.021290528 -0.001485276 -0.062905826 0.022224406 0.029070828 -0.02296632 0.013415246 -0.029426895
-0.029236944 0.061579727 0.0065293307 0.0068874257 0.009167747 0.0025696023 -0.010552754 -0.00810995
0.03163339 -0.0076472345 -0.011757007 0.014089809 -0.04295216 0.021813447 0.026116911 -0.022890607
-0.0066102627 0.03204594 0.021792343 -0.022228628 0.033290002 -0.02532746 0.011712807 0.016533045
-0.040969964 0.014587703 0.011968249 -0.013170532 0.012275825 -0.009550831 0.06147893 -0.036916967
0.044594202 0.0020371312 -0.0047828946 -0.015106759 -0.051687047 -0.029466983 -0.027816162 -0.030768635
-0.015894042 0.006114889 0.043092225 -0.020477254 -0.04322268 0.020879393 0.04898294 0.0321131
0.0113966605 -0.08172587 -0.0060967826 0.07109576 0.019851025 0.0076627047 0.028659748 0.045502722
-0.0072345086 0.021164784 -0.073300935 -0.0047003054 -0.045722466 0.026356908 -0.0015113875 0.006221564
-0.010541613 0.0046995208 -0.074226834 0.019090913 -0.049222466 -0.050619807 -0.017507015 0.027735557
0.019951455 0.017367732 0.04314345 0.023422075 -0.021175418 -0.018216608 0.077276774 0.017332798
0.003259047 -0.042353805 -0.029154627 -0.07384123 0.064682156 -0.0103767775 -0.029010152 0.0138935875
-0.04162484 -0.074375294 -0.020813271 -0.009665056 0.053219773 0.03594152 -0.02350595 0.0057324306
0.010441384 0.027074713 -0.040736765 0.022497598 -0.0092089595 -0.029928628 0.021783207 0.017034579
-0.050158244 -0.027210044 0.016534995 -0.06659417 -0.03472071 0.016536498 -0.012996294 -0.040199973
-0.052835673 0.03221154 0.015202014 -0.005560635 0.004473391 0.03986314 0.008390224 -0.020923153
-0.003033472 0.00024929843 -0.029210519 -0.053702064 0.007303479 -0.0131548 -0.06638589 -0.015023981
-0.014973226 -0.020332163 0.023486676 -0.044690944 -0.0023071498 0.029318029 -0.020076776 0.0024301007
-0.016438471 0.030658865 -0.0052514044 -0.01707263 -0.01267928 -0.01084579 -0.0134011265 -0.044615343
-0.041162148 -0.00022750732 0.02518059 0.0021211451 -0.0052834735 0.0030131624 -0.03411727 0.054174237
00000000: d478 01bd 6435 c93c 7bf1 a43d efa0 babc
00000010: bc7f 4bbc 0080 943c dc1b f73c 6341 78bd
00000020: c73f 7d3c 5aae d93c f29b 8c3c fbfe 4abc
00000030: 7eb4 a33c ddcc 91bc 208d 9ebc d4ab 32bc
00000040: c748 8b3b f684 73bc 4946 d6bc 63d1 37bc
00000050: e0d1 84bc b244 19bc 18e0 f1bc cafd 663c
00000060: 34a7 303d 9d2d 6ebc fe20 1fbd 6a51 203d
00000070: 9b66 373d e5cd 90bc 8258 6cbb b7f1 973c
00000080: 0bcd c7bb 4cfb 553c 1e25 11bc 6a16 953c
00000090: 10aa a4bb 5cc3 42bd 0da3 62bb fb45 053d
000000a0: e8dc 9fbd b7db 243d 5daa 1d3c 6510 a13d
000000b0: 019f 41bc 37ac 213c ca06 6d3a 765d db3c
000000c0: 8194 113d 1b44 103d 197a a13c 4a9a d43c
000000d0: 5b30 4cbd ca7e b1bc 0827 63bc ed31 fbba
000000e0: d97b 173d ad3c 8e3c a588 9a3c b90c e1ba
000000f0: d6fb 1e3c e05c 66bd 23e0 adbc e93a 6cbd
00000100: 1323 9d3a cbb7 bebd 40bc 713d 4f6d 583d
00000110: 9f36 febc 30c3 1bbc 0e8d 88bc c13d 4abc
00000120: 5487 8a3c 1632 d63b 07ce 623c 435e 093b
00000130: d691 ceba 1cce 06ba 4bfc 1bbd 52aa 7fbd
00000140: 6c03 9cba 953f 0a3d 0fcf 6f3c 6186 3fbd
00000150: ee16 5d3c 4eaf 1b3d 3f0f afbc 6b50 52bc
00000160: f6f5 efbc 0e7a bb3c 6e29 e1ba 66a8 313c
00000170: 9b2c 83bd 797d a5bc 3399 233d 1b84 023c
00000180: 7969 ae3c 98ad c2ba c5d4 80bd f50f b63c
00000190: f225 ee3c dd23 bcbc 9fcb 5b3c ac10 f1bc
000001a0: 5182 efbc 063b 7c3d fff3 d53b eaaf e13b
000001b0: 5134 163c c666 283b 75e5 2cbc 99df 04bc
000001c0: 0392 013d a795 fabb 76a0 40bc f1d8 663c
000001d0: 9bee 2fbd 1db2 b23c 22f3 d53c 1585 bbbc
000001e0: e79a d8bb 9b42 033d db85 b23c d018 b6bc
000001f0: 195b 083d 897b cfbc 13e7 3f3c 4f70 873c
00000200: 1fd0 27bd 4301 6f3c 7a16 443c 37c9 57bc
00000210: 8b20 493c 177b 1cbc 55d1 7b3d 3f36 17bd
00000220: 69a8 363d 6481 053b d4b9 9cbb 5782 77bc
00000230: ccb5 53bd be64 f1bc b8de e3bc 810e fcbc
00000240: 3934 82bc 685f c83b 7981 303d eabf a7bc
00000250: 440a 31bd 430b ab3c 56a2 483d 0789 033d
00000260: 0fb9 3a3c e55f a7bd 85c7 c7bb a79a 913d
00000270: 9e9e a23c 6d17 fb3b d9c7 ea3c 1061 3a3d
00000280: 750f edbb c561 ad3c cd1e 96bd 0505 9abb
00000290: 7b47 3bbd 71ea d73c c019 c6ba 43de cb3b
000002a0: bbb6 2cbc 70fe 993b 3d04 98bd 8c64 9c3c
000002b0: 7f9d 49bd b756 4fbd df6a 8fbc ae35 e33c
000002c0: 3c71 a33c c646 8e3c 30b7 303d a7df bf3c
000002d0: 1278 adbc ff3a 95bc 4943 9e3d 83fd 8d3c
000002e0: bc95 553b 2f7b 2dbd afd5 eebc 123a 97bd
000002f0: 1478 843d 5c03 2abc b3a6 edbc eea1 633c
00000300: cf7e 2abd 1352 98bd 9880 aabc 2f5a 1ebc
00000310: fafc 593d 6a37 133d 8d8f c0bc 1dd7 bb3b
00000320: 5712 2b3c cacb dd3c 98db 26bd e24c b83c
00000330: 2de1 16bc e22c f5bc b272 b23c 1a8c 8b3c
00000340: bb72 4dbd 99e7 debc 6674 873c 8662 88bd
00000350: 4e37 0ebd 8d77 873c 68ee 54bc baa8 24bd
00000360: 386a 58bd 3ff0 033d de11 793c fd35 b6bb
00000370: 8695 923b 8847 233d 2677 093c 0867 abbc
00000380: 37cd 46bb 45b4 8239 e64a efbc b2f6 5bbd
00000390: 0652 ef3b 3b87 57bc 53f5 87bd 2527 76bc
000003a0: 4352 75bc a38f a6bc 2167 c03c da0d 37bd
000003b0: 8d33 17bb 5d2c f03c 0d78 a4bc 5342 1f3b
000003c0: f9a9 86bc 4d28 fb3c f913 acbb e6db 8bbc
000003d0: c1bc 4fbc 8ab2 31bc 6690 5bbc 94be 36bd
000003e0: a499 28bd 088f 6eb9 8647 ce3c e902 0b3b
000003f0: fd20 adbb 7a78 453b 8dbe 0bbd cee5 5d3d
