TSV_llama3.1-8B_tqa/exemplar_num_32_num_selected_data_128/res/9/5/saved_vectors/tsv_layer_9.npy (npy, 16512 bytes, 1 tensors)

array f4 [4096]
00000000: 8fc2 053a e211 cb3b 4204 013d 0c4b 9bbb
00000010: 081b d9bb 0fce 8e3c 629f feb9 80b1 bbbd
00000020: 43de 1c3d 656c 503b dc0c 39bb bec7 9cbc
00000030: 3469 1ebb 2254 64bd 89ec 39bd 74c9 c5ba
00000040: d784 30bb 169b 0a3d de8f ffbc ee3e 6abc
00000050: 78d6 a8bc bd8e 23bc c03b 0dbd 041f 7f3c
00000060: 392a c43c e798 22bc 08af b3bd 5e4f 013c
00000070: 530e 1d3d 6afd 0b3c 348f 12bc 9ecf 4e3c
00000080: ed66 963c fc4b 163c 1883 f63c 006e 73b9
00000090: b622 c8bc bb4e efbc 4429 93bc c31b a03b
000000a0: c565 973c f684 653d efdc 97bb a59f a03d
000000b0: f892 333d c273 bdbc 50d3 ff3c 843f 6c3d
000000c0: 6f11 ecbc 509d 2c3d 3e7c cabc ce77 1b3d
000000d0: a253 23bc 4b63 86bb c722 ef3b 51b7 0bbc
000000e0: fa5d 823d 91a9 0c3d 851f 903c 0838 5f3c
000000f0: 709d 083c 1978 91bd db1d 5ebd d14d adbd
00000100: a4ab 743d 7576 b13b a4c1 653d 4508 6e3d
00000110: 238d 65bb cee4 ffbc a977 323c d0b7 e83c
00000120: 34bb a9bb e29f 8bbb d703 6d3a 1f55 93bc
00000130: 8ba9 e43b 10b8 7fbb b139 6bbd 7a21 24bd
00000140: 8fc7 eebb 5b5f 213d 44f9 ea3c 3b42 c73c
00000150: 2e47 023d 42ea babc 7d43 a5bc e575 28bd
00000160: 4f38 8239 f84a 0b3d 134b 42bd 7607 653d
00000170: 11b1 6bbc 614a 76bc 707d 913d a1db 023d
00000180: 14e8 b8bb 9620 3cbb ef78 8dbd 9b6f 0d3d
00000190: a6d6 f8bc 49af d9bd ea1a dcbb a8eb 923a
000001a0: f63d 37bc 01c2 9f3d 5f5b 5f3d 7216 113c
000001b0: 2eb4 833c 09a2 d4bc 123b f43b e2f4 02bd
000001c0: cb7c f93c b6a0 593c c98e 983c cf1b 513d
000001d0: 7559 8fbd 0b8b 663c db9d 8f3d 1ece 67bc
000001e0: 333d 4ebc 51e9 153d c496 f0bc 70c1 1ebd
000001f0: 5560 8e3a 4c85 873b d25f b8bc 0818 61bc
00000200: 09cd 133a 4990 d93c 4acb c4bb a348 edbb
00000210: 2358 42bc 46a8 013d 1c94 0cbc e369 11bd
00000220: 87d1 0a3d d385 0b3c 2da2 4fbd 2127 1fbd
00000230: 648b 7fbd 5bf8 a8bc 6c84 053d 8045 36bd
00000240: bbc3 153d 1cb7 cb3c 224e 273d 9fc3 3ebd
00000250: d247 8cbd 1055 cd3c 81f8 953d d54e 933c
00000260: 2f7c 3c3d 9412 133c 68a5 9bbc b7f6 043d
00000270: afff 4dbb 784a 84bc 9c2b 32bc 91a4 8e3c
00000280: 647a a1bc 40a1 a33d aef0 1ebd 7cfc 96bc
00000290: 39ce 4dbd 5800 823d 4d5e d0bc e840 c0bb
000002a0: 76d8 25bd c9fd ecbb 5cad acbd 2fb1 613d
000002b0: 83c3 18bc 429a a0bd 4459 283c 4161 62bb
000002c0: 34eb 063d 054a 193c b14a aa3c 55a0 503c
000002d0: 7397 083d fc97 d5bb b738 233d 0fa2 503c
000002e0: 3201 a63c eac5 553c 70da c5bc 6041 0dbd
000002f0: 19eb 6c3d 823c cfbc adf6 90bc f1a8 4ebb
00000300: 9110 40bd dd68 89bd 0b4a 81bd 283b fabc
00000310: 1c45 c73b 8b52 0f3d 938c e3bc d160 843d
00000320: 7702 ca3c 4562 773d f097 56bd 557b 553d
00000330: 7ae5 5a3c 5c83 f3bb eb41 ca3c 5975 523c
00000340: a3e6 a5bd 9240 e6bc 7758 11bd 58c4 84bd
00000350: 54bb 1fbd 4a14 fabc c5ec 953c dfc9 9cbd
00000360: 03b2 63bb dd2e ac3c 1610 703c fd57 c4bc
00000370: d2fa 863d 2fef b1bb fd89 463d 9654 ddbc
00000380: 82d2 38bd ffe1 ce3c f9b1 4f3c c3f5 0bbd
00000390: 797c 5b3d 80ff 84bd d978 71bd 3ef1 aebc
000003a0: d595 7f39 59ca 343c 6aff 9f3d b8b1 7a3c
000003b0: de06 a7bc d96b 0b3d 77ae d8bc 138c 453c
000003c0: 0285 51bc 0f4b e0bc 35ae c53c a788 b03c
000003d0: 3d4a 55bc 1ea5 e1bc f610 f0bc f69a 4cbd
000003e0: 8d2e 923b 9db2 f9bc 5a15 923c 2e09 543d
000003f0: f939 8b3d 3e26 453b 0ba0 913b cac8 e63d
0.0005102539 0.0061972 0.0314982 -0.004739171 -0.006625537 0.01743224 -0.00048565405 -0.09164715
0.038297903 0.003180289 -0.0028236425 -0.019138213 -0.0024171593 -0.055744298 -0.045391593 -0.0015089945
-0.0026934647 0.033839308 -0.03119653 -0.01429723 -0.02061008 -0.009982762 -0.03448081 0.01557136
0.023945915 -0.00992415 -0.08773619 0.007892458 0.03834374 0.008544305 -0.008945275 0.012622742
0.018359626 0.0091733895 0.030091807 -0.00023215264 -0.024430614 -0.029212346 -0.017964013 0.004886122
0.018481145 0.056035005 -0.0046344916 0.0784295 0.043841332 -0.023126487 0.031228691 0.05767776
-0.028816907 0.042142212 -0.024717446 0.03795605 -0.00996867 -0.004101192 0.007297847 -0.008527593
0.06365581 0.0343414 0.017593155 0.013624199 0.008338317 -0.07102985 -0.05422769 -0.08462108
0.059734 0.0054157325 0.056092873 0.058113355 -0.003502675 -0.031237032 0.010892787 0.028407961
-0.005179787 -0.004261003 0.00090414047 -0.017984925 0.006978219 -0.0039019622 -0.057428066 -0.04007099
-0.007286973 0.03939758 0.028683312 0.024323573 0.031806163 -0.022816781 -0.020173782 -0.041128058
0.00024837485 0.034007043 -0.047434878 0.05591532 -0.014385478 -0.015032382 0.071040034 0.031947736
-0.0056429002 -0.0028705946 -0.06907832 0.034530263 -0.03037579 -0.10629136 -0.0067170756 0.0011209147
-0.011184206 0.07800675 0.054530498 0.008855449 0.016077127 -0.02595617 0.007453331 -0.03197182
0.030455014 0.013282945 0.018622773 0.05105191 -0.069994844 0.014071236 0.070125304 -0.014148263
-0.012587833 0.03659946 -0.029368766 -0.038758695 0.0010862449 0.0041357633 -0.022506628 -0.01373864
0.00056381576 0.026558058 -0.0060056793 -0.007241325 -0.011861834 0.03165462 -0.008580234 -0.035501372
0.033891227 0.008515793 -0.050691772 -0.038855676 -0.062388793 -0.020626238 0.03259699 -0.044499874
0.036563616 0.024867587 0.040845998 -0.046573278 -0.06849636 0.025064975 0.07322789 0.017981926
0.04601687 0.008976597 -0.01899977 0.032461848 -0.0031432917 -0.01614879 -0.010874655 0.017412456
-0.01971168 0.0798974 -0.03880375 -0.01843094 -0.050245497 0.06347722 -0.025435591 -0.0058671124
-0.040489636 -0.007232402 -0.08431503 0.055100616 -0.009323957 -0.07841922 0.010275189 -0.003454283
0.03293915 0.009356027 0.020787569 0.012733539 0.03334756 -0.006518362 0.03984901 0.01273395
0.020264242 0.013047675 -0.02415201 -0.034486175 0.057841394 -0.025297407 -0.01769575 -0.0031533802
-0.0468908 -0.06709454 -0.06312951 -0.030545786 0.0060812365 0.03499083 -0.027776992 0.06463779
0.024659378 0.06039645 -0.052390993 0.05211957 0.013360376 -0.0074314307 0.024689635 0.012845361
-0.08100631 -0.028106961 -0.035484757 -0.06482762 -0.03899701 -0.030527253 0.018301377 -0.07655691
-0.0034743554 0.02101844 0.014652273 -0.023967737 0.06590809 -0.0054301242 0.04847144 -0.027017873
-0.04512263 0.025254248 0.012676709 -0.034169924 0.053585503 -0.06494045 -0.05895314 -0.021355268
0.00024374512 0.011034572 0.07812388 0.0153011605 -0.020389017 0.0340384 -0.026450379 0.012057322
-0.012788059 -0.02737954 0.02413092 0.021549536 -0.013018188 -0.027544554 -0.029304963 -0.04995247
0.0044611157 -0.030480677 0.017832447 0.051766567 0.06798167 0.0030082609 0.0044441274 0.11268766
