TSV_llama3.1-8B_tqa/exemplar_num_32_num_selected_data_128/loss_original/attn/31/5/saved_vectors/tsv_layer_31.npy (npy, 16512 bytes, 1 tensors)

array f4 [4096]
0	0xb980015c	-0.00024415075
1	0x3e0b3794	0.1359542
2	0xbd134430	-0.0359537
3	0xbd66d593	-0.056356024
4	0x3e325a6e	0.17417309
5	0xbe094513	-0.13405256
6	0x3ce4ec29	0.027944641
7	0x3b490900	0.003067553
8	0xbc2123ca	-0.009835193
9	0xbddd7af6	-0.108144686
10	0xbc1eb1ee	-0.009685976
11	0xbd3e0aa6	-0.046396874
12	0xbe2d0682	-0.16897014
13	0xbd47a9ec	-0.048746035
14	0xbce196c0	-0.027537704
15	0x3d8f431d	0.06995223
16	0xbc9a5d53	-0.018843329
17	0x3b501655	0.0031751592
18	0xbdff7a6c	-0.12474522
19	0x3d16513d	0.03669857
20	0x3cff29a8	0.031147793
21	0x3cc10a99	0.023564624
22	0x3d1e22ee	0.03860753
23	0x3c1e8602	0.009675505
24	0x3dafaaff	0.08577537
25	0xbe06dac1	-0.13169385
26	0xbdcc1688	-0.09965235
27	0xbbdb4603	-0.0066916957
28	0x3d5de075	0.054169137
29	0x3c9d8009	0.019226091
30	0xbd64663e	-0.05576157
31	0xbdc38d8f	-0.095484845
32	0xba427bb8	-0.0007418948
33	0xba65b114	-0.00087620434
34	0xbd33f45b	-0.043934207
35	0x3c9018f6	0.017590027
36	0x3ce6477c	0.028110258
37	0xbd156ecd	-0.03648262
38	0x3d05e48b	0.03268866
39	0xbd9ed0e8	-0.077546895
40	0xbcb5394b	-0.022122046
41	0xbd1ea76c	-0.038733885
42	0x3c6535ec	0.013989907
43	0xbd7016f2	-0.058615632
44	0x3da4a7d1	0.08039821
45	0xbc5747fc	-0.013139721
46	0xbc1e0b71	-0.0096462825
47	0xbe04cb79	-0.12968244
48	0xbd19d7dc	-0.037559375
49	0xbe348890	-0.1763022
50	0x3c4b2766	0.01239953
51	0x3d47a58b	0.04874186
52	0xbb80600c	-0.0039176997
53	0x3dda3430	0.10654485
54	0x3d5f75c1	0.05455566
55	0x3c232370	0.009957179
56	0xbd40ec27	-0.047100212
57	0xbd52b42a	-0.05144135
58	0xbca944e6	-0.020662736
59	0x3e391f01	0.18078233
60	0xbdf2f4be	-0.11863087
61	0x3cd3df2d	0.025863254
62	0xbd30a086	-0.043121837
63	0x3db63173	0.088961504
64	0xbd545e75	-0.051847894
65	0x3c778f4f	0.015109851
66	0x3d094fa5	0.03352322
67	0x3cc63b21	0.024198117
68	0xbc2579a4	-0.010099802
69	0xbd6cb0df	-0.057785865
70	0xbccc2f8d	-0.024925018
71	0x3d0b0f9d	0.033950437
72	0xbd3cfd0f	-0.046139773
73	0xbde811cc	-0.113315195
74	0x3dcf5772	0.10124101
75	0xbd2ab712	-0.041678496
76	0x3d636f97	0.055526342
77	0xbd9798c6	-0.07402186
78	0xbd8763af	-0.0661081
79	0xbd6dc36a	-0.05804769
80	0x3d844305	0.064580955
81	0x3c0682a9	0.008209863
82	0xbcecaec7	-0.028891934
83	0x3c6a6d95	0.014308353
84	0xbc5d1c4f	-0.013495519
85	0x3d518a4d	0.051157285
86	0x3c4d6a1d	0.012537506
87	0xbdca4388	-0.09876162
88	0xba1da962	-0.0006014315
89	0x3c92c3ca	0.017915625
90	0xbd7e40d0	-0.06207353
91	0x3cf351ef	0.029702155
92	0xbd3fd6a4	-0.046835557
93	0xbcac8be8	-0.021062806
94	0x3d52c3be	0.051456206
95	0xbdc070b8	-0.093964994
96	0xbd99a07c	-0.07501313
97	0xbcbe4236	-0.023224931
98	0xbd45dc12	-0.04830558
99	0xbe354cd6	-0.17705092
100	0x3d13e7e6	0.036109827
101	0x3d46b4c3	0.04851223
102	0x3e3223c3	0.17396455
103	0x3d440bbb	0.04786275
104	0xbc76a1d1	-0.0150532285
105	0xbb1294ca	-0.0022366517
106	0x3dd2b41d	0.1028826
107	0xbd3b6173	-0.04574723
108	0xbd915a65	-0.070973195
109	0x3d95af60	0.07308841
110	0x3dcb00d9	0.09912271
111	0x3e004bd8	0.12528932
112	0xbe797797	-0.24362026
113	0x3d9ddf71	0.07708634
114	0x3d071ddc	0.03298746
115	0x3dc90ab2	0.09816493
116	0x3df8de64	0.12151793
117	0xbd03c7ea	-0.032173075
118	0x3d887b53	0.06664147
119	0x3daac668	0.08338624
120	0x3dc17364	0.09445837
121	0xbdb6a771	-0.08918656
122	0xbc634af6	-0.013872853
123	0x3dabd334	0.08389893
124	0x3c6e786f	0.014555081
125	0xbd45ce9a	-0.048292734
126	0x3cd9aac3	0.026570683
127	0xbd25bed6	-0.0404652
128	0xbaece266	-0.0018072843
129	0x3c709792	0.014684575
130	0x3e3a0247	0.18164931
131	0xbcfe9869	-0.031078534
132	0x3dbd4e22	0.09243418
133	0xbe331b9e	-0.17491004
134	0xbd22af03	-0.039717685
135	0xbd307184	-0.043077007
136	0x3d1f1bee	0.038844995
137	0xbd3d2b03	-0.046183597
138	0xbd410a28	-0.047128826
139	0xbc861824	-0.016368933
140	0xbdf2d1a1	-0.1185639
141	0xbba5245a	-0.005039734
142	0x3cb1e29f	0.021714507
143	0x3e22a810	0.15884423
144	0xbbfa9ad7	-0.007647853
145	0xbd2d2780	-0.042274
146	0x3d4e24ea	0.050328173
147	0x3d00388c	0.031303927
148	0x3d017a30	0.031610668
149	0x3cecf852	0.028927002
150	0xbcc938b4	-0.024563171
151	0x3d0356e7	0.0320653
152	0x3e0f9b90	0.14024186
153	0xbdc4fa2e	-0.096180305
154	0x3cc48831	0.023990722
155	0xbc03126b	-0.007999997
156	0x3cb49e11	0.022048028
157	0xbe584c78	-0.2112292
158	0xbb3a1eba	-0.0028399662
159	0x3c279e92	0.010230677
160	0xbe56330d	-0.20917912
161	0xbd59b450	-0.053150475
162	0xbd73df3d	-0.05953907
163	0x3d7aa57b	0.06119297
164	0xbdcca57f	-0.099925034
165	0xbd684b2b	-0.05671231
166	0xbcc69805	-0.02424241
167	0x3d745f9f	0.059661504
168	0xbbf835dc	-0.00757478
169	0x3c8e647e	0.017381903
170	0xba6f6d06	-0.0009133372
171	0x3e1d3c7c	0.15355104
172	0xbd5a6f5e	-0.053328864
173	0xbcf585ae	-0.02997097
174	0x3d31b4ec	0.04338543
175	0x3ce976a4	0.028498955
176	0xbd329e91	-0.043608252
177	0xbdcff010	-0.1015321
178	0x3c5c518d	0.013447178
179	0xbdeaafd5	-0.114593185
180	0xbc93ddc1	-0.018050076
181	0x3c235e8a	0.00997127
182	0xbde28bb1	-0.110618
183	0x3bfc883d	0.0077066706
184	0xbb9ccefb	-0.004785416
185	0xbbbf6827	-0.0058412733
186	0x3cfa0d1d	0.030523831
187	0x3d9348e2	0.07191636
188	0x3d0abcf9	0.033871625
189	0xbcd8067b	-0.026370278
190	0xbddea5c5	-0.10871462
191	0x3d861a90	0.06548035
192	0x3d0564ad	0.032566715
193	0xbc996904	-0.018726833
194	0xbdb55d5f	-0.088557
195	0xbda506d2	-0.080579415
196	0xbe32c2d1	-0.17457129
197	0x3dea946d	0.11454091
198	0x3d076261	0.033052806
199	0xbd23a900	-0.039956093
200	0x3de2a15f	0.11065935
201	0x3d43d87d	0.04781388
202	0xbcd365b4	-0.025805332
203	0xbc49e558	-0.012322746
204	0x3cd745ea	0.026278455
205	0x3e111cdd	0.14171167
206	0x3d8ad7a1	0.06779409
207	0xbca61dee	-0.020277943
208	0xbd6baeea	-0.057539858
209	0x3ca74d84	0.020422705
210	0x3abe03d4	0.001449699
211	0xbdc78b75	-0.09743396
212	0x3e1a151e	0.15047118
213	0xbdd1761d	-0.102276064
214	0xbd280b55	-0.041026432
215	0xbd04953c	-0.032368883
216	0xbdf7e70b	-0.12104615
217	0x3cd0c91e	0.025486525
218	0xbc074700	-0.008256674
219	0x3e26a3bb	0.16273396
220	0x3d3e422a	0.046449818
221	0x3cf5b451	0.029993208
222	0x3d135b6e	0.035975866
223	0xbbbd55b3	-0.0057780384
224	0x3da8a8ec	0.08235344
225	0xbc8c3368	-0.017114356
226	0x3e5a6190	0.2132628
227	0xbda7d588	-0.08195025
228	0xbdd3736b	-0.103247486
229	0xbcecc28a	-0.028901357
230	0x3d3f14c2	0.046650656
231	0xbbce4f12	-0.006296047
232	0xbd78b26f	-0.060717043
233	0xbdb303b6	-0.08740942
234	0x3d8e3dc7	0.06945377
235	0xbd84a7be	-0.06477307
236	0x3e2f6d61	0.17131568
237	0x3ca3f494	0.020014085
238	0xbd9e8b84	-0.07741454
239	0xbd7d919d	-0.061906446
240	0x3c4d1d97	0.012519262
241	0x3e0ba8e5	0.13638647
242	0xbe096162	-0.13416055
243	0xbe31e6d1	-0.17373206
244	0xbc8cd619	-0.017191933
245	0xbc41480c	-0.0117969625
246	0x3e277606	0.16353616
247	0x3c823ddc	0.015898637
248	0x3cc1c8e9	0.023655372
249	0xbda42349	-0.080145426
250	0x3d4caf8a	0.049972095
251	0x3caa6431	0.020799728
252	0x3d5a7d16	0.053341947
253	0x3da57221	0.08078409
254	0xbbd261a4	-0.006420331
255	0x3e28902d	0.16461249
