TSV_qwen2.5-7B_tqa/exemplar_num_32_num_selected_data_128/res/15/5/saved_vectors/tsv_layer_15.npy (npy, 14464 bytes, 1 tensors)

array f4 [3584]
0.023921696 0.14658372 -0.0030558314 -0.03117523 -0.11385188 0.0026478267 -0.015254191 0.07699211
0.015531902 0.076467976 0.16607134 -0.068631195 0.19866121 0.02092942 -0.07368653 -0.1347918
0.06569968 0.08861591 0.14856951 0.004956439 0.03525971 -0.075736664 -0.04941951 0.057496678
0.08210266 0.030356055 -0.030852355 0.033398878 -0.01784831 0.16870622 -0.1256497 -0.08344545
0.1821884 0.081852034 -0.1028415 0.037112333 -0.010153808 0.03523301 0.009918533 0.021597326
-0.029584581 -0.018776733 0.014213945 -0.026108794 -0.046068892 0.0071609146 0.026771734 -0.08082284
-0.026412927 0.13274427 -0.054532096 0.018269688 0.046244603 -0.056844372 0.09008377 -0.07701837
-0.11630714 0.110437736 0.017475728 0.011427773 0.16065826 0.050039317 -0.16191271 0.058116946
0.044940364 0.11532769 0.09122491 -0.10427809 -0.018365037 -0.09837455 -0.014609677 0.15824653
-0.049054984 -0.12406541 0.028821327 0.10922564 -0.072653204 -0.040785275 -0.028670033 -0.16687544
-0.01010866 -0.18924887 -0.029999886 -0.0044349893 -0.2029413 0.07238152 0.12500231 -0.05754754
0.16993883 0.12429032 -0.114144534 0.021287823 0.120929554 0.004894721 0.05766238 0.06733693
-0.11575765 -0.06503986 -0.07866849 0.101781644 0.072576486 -0.09057654 -0.07607483 -0.09753555
0.0641238 0.0025972428 0.06269179 0.12312851 -0.086402096 -0.08223666 0.074071005 -0.016261563
-0.044747464 0.023318527 -0.0227095 0.12507363 0.044402093 0.0812825 0.031841513 -0.07464483
0.030274425 0.06468258 0.11465482 -0.050186798 -0.05252825 -0.11194133 0.06156095 -0.033187136
-0.108959146 -0.09087812 -0.06724843 -0.011821464 -0.027409159 0.11212888 0.18133621 0.19263253
0.014067377 0.087908335 -0.05183315 -0.025029922 0.057858653 0.02864799 -0.053793725 -0.062148005
0.08211406 -0.23171526 0.055923056 0.03071341 0.10286455 -0.033404082 -0.084645264 0.084326655
-0.027107893 0.06898763 -0.04682506 0.17508568 0.0136074815 0.112718984 0.116188444 0.029563196
0.010147511 -0.023192497 0.04543415 0.049332898 -0.013741851 0.068117395 -0.05956455 0.13152763
0.002497368 -0.041865557 -0.082488805 0.04902012 -0.00022190103 0.06212535 0.055778343 0.008345567
0.16223925 0.030891899 0.05533834 -0.025162775 -0.0036131218 0.13349625 -0.0051006074 -0.12059779
-0.07856753 -0.12622519 -0.020607919 0.1935958 -0.13223952 -0.04357868 0.030280404 -0.13623866
0.015145302 -0.04924677 0.05773661 -0.09174415 -0.043221403 0.10345922 -0.0363182 0.10531823
0.06331499 -0.15376425 0.08628336 0.008354784 0.011008307 0.04485707 -0.13687159 -0.15198116
0.055710886 0.14560907 0.14658761 -0.050468523 0.0018743422 -0.06969904 -0.0998354 0.11454034
-0.0755453 -0.08412193 -0.028174853 0.15161008 0.12306364 -0.1771223 -0.13783015 -0.058423255
0.087623216 -0.01667586 -0.09601011 0.122148834 -0.014886948 0.090180755 -0.15590265 0.1596812
-0.0070651756 -0.023865703 0.038543165 -0.072729394 -0.021272784 -0.0488976 -0.056378566 0.062118214
0.027968204 -0.018751957 -0.07188402 0.033706278 0.14157996 -0.010665726 0.026049811 -0.16722758
0.18786214 -0.05664961 0.17657275 0.03045668 0.07788288 0.056840017 -0.0025205829 -0.12300409
00000000: 6ff7 c33c 0b1a 163e 5844 48bb 3263 ffbc
00000010: 2d2b e9bd 2987 2d3b b7ec 79bc 0aae 9d3d
00000020: 8579 7e3c 3e9b 9c3d 9b0e 2a3e 838e 8cbd
00000030: d86d 4b3e 2d74 ab3c f7e8 96bd dd06 0abe
00000040: 8e8d 863d 427c b53d 9b22 183e a069 a23b
00000050: 7c6c 103d d31b 9bbd 1d6c 4abd a381 6b3d
00000060: 7025 a83d 43ad f83c 14be fcbc 43cd 083d
00000070: 9e36 92bc 53c1 2c3e 51aa 00be 73e5 aabd
00000080: 998f 3a3e 0aa2 a73d 909e d2bd 1a03 183d
00000090: 285c 26bc 7d50 103d 5881 223c e0ec b03c
000000a0: 5d5b f2bc aad1 99bc 9be1 683c 1ce2 d5bc
000000b0: bcb2 3cbd 1ba6 ea3b 6550 db3c 7286 a5bd
000000c0: ec5f d8bc 1dee 073e 0c5d 5fbd 50aa 953c
000000d0: fb6a 3d3d a5d5 68bd d77d b83d cfbb 9dbd
000000e0: 7032 eebd 2e2d e23d 4229 8f3c 8e3b 3b3c
000000f0: 9983 243e 07f6 4c3d 72cc 25be 090c 6e3d
00000100: 6313 383d ed30 ec3d 20d4 ba3d c08f d5bd
00000110: 4672 96bc 9978 c9bd 6d5d 6fbc 610b 223e
00000120: e1ed 48bd 0116 febd b41a ec3c b1b1 df3d
00000130: 34cb 94bd 760e 27bd 6bdd eabc 65e1 2abe
00000140: cb9e 25bc 75ca 41be 52c2 f5bc 6353 91bb
00000150: d8cf 4fbe c33c 943d 9b00 003e f8b6 6bbd
00000160: 7204 2e3e ec8b fe3d 9cc4 e9bd cd63 ae3c
00000170: eaa9 f73d e563 a03b 632f 6c3d f2e7 893d
00000180: 5912 edbd 9e33 85bd f21c a1bd e572 d03d
00000190: fba2 943d 3180 b9bd 1fcd 9bbd b8c0 c7bd
000001a0: 5753 833d 8136 2a3b 8e64 803d cd2a fc3d
000001b0: 95f3 b0bd b26b a8bd 8ab2 973d f836 85bc
000001c0: 1e49 37bd 7f06 bf3c 4609 babc 4d13 003e
000001d0: f8de 353d 7077 a63d 3f6c 023d 63df 98bd
000001e0: 1202 f83c 4d78 843d 25d0 ea3d ac90 4dbd
000001f0: dd27 57bd 7f41 e5bd 5627 7c3d 3cef 07bd
00000200: f925 dfbd 4f1e babd 8bb9 89bd d0ae 41bc
00000210: 2c89 e0bc d4a3 e53d 33b0 393e 7641 453e
00000220: db7a 663c 4909 b43d ff4e 54bd 8d0b cdbc
00000230: 32fd 6c3d 31af ea3c cf56 5cbd e88e 7ebd
00000240: 6b2b a83d c446 6dbe 930f 653d b09a fb3c
00000250: a6aa d23d b8d2 08bd 7f5a adbd 74b3 ac3d
00000260: 5f11 debc 6349 8d3d a2cb 3fbd a949 333e
00000270: eaf1 5e3c 36d9 e63d 35f4 ed3d 842e f23c
00000280: bf41 263c 31fe bdbc 2919 3a3d 4b11 4a3d
00000290: 8025 61bc 2281 8b3d f5f9 73bd 2eaf 063e
000002a0: e2aa 233b 387b 2bbd e4ef a8bd 52c9 483d
000002b0: 1bae 68b9 2777 7e3d d577 643d d8bb 083c
000002c0: 0c22 263e 0211 fd3c 75aa 623d 2a22 cebc
000002d0: 20ca 6cbb 3eb3 083e ff22 a7bb f9fb f6bd
000002e0: 03e8 a0bd 2d41 01be f0d1 a8bc fa3d 463e
000002f0: cc69 07be 8f7f 32bd 9c0e f83c 2682 0bbe
00000300: 0024 783c fbb6 49bd 397d 6c3d 5be4 bbbd
00000310: ed08 31bd 6de2 d33d 65c2 14bd 16b1 d73d
00000320: 4aab 813d 6074 1dbe 55b5 b03d 81e2 083c
00000330: 305c 343c 0cbc 373d 1128 0cbe f3a0 1bbe
00000340: 1931 643d 8b1a 153e 101b 163e 15b8 4ebd
00000350: 7dac f53a 5fbe 8ebd 8176 ccbd 2094 ea3d
00000360: 7fb7 9abd 1e48 acbd f3ce e6bc ac3f 1b3e
00000370: ca08 fc3d 8c5f 35be 5923 0dbe 394d 6fbd
00000380: cd73 b33d d09b 88bc f3a0 c4bd 2b29 fa3d
00000390: 63e8 73bc b0b0 b83d f2a4 1fbe 7883 233e
000003a0: fd82 e7bb 0282 c3bc 70df 1d3d 26f3 94bd
000003b0: 4344 aebc da48 48bd 36ed 66bd ab6f 7e3d
000003c0: 931d e53c b49d 99bc ee37 93bd 980f 0a3d
000003d0: 56fa 103e 4cbf 2ebc 6a66 d53c b53d 2bbe
000003e0: ef5e 403e 6c09 68bd 7dcf 343e 4a80 f93c
000003f0: 0f81 9f3d 14d1 683d 5d30 25bb 91e9 fbbd
