TSV_llama3.1-8B_tqa/exemplar_num_32_num_selected_data_128/loss_original/res/5/5/saved_vectors/tsv_layer_5.npy (npy, 16512 bytes, 1 tensors)

array f4 [4096]
00000000: b208 73bc e409 863c 0cbe 0abd 60f0 90bc
00000010: 4801 93bc 3695 693c ac67 40bc ad84 7b3b
00000020: 32e0 223d 1f8c 963c 8c5b 873b b2b9 00bd
00000030: 1b56 23bc 73ab ab3c c916 a33c 98c5 ac3c
00000040: abde 8b3b d618 52bb 9a94 09bb 5a1c 013c
00000050: 63fc eebb f05a 1f3c 6219 d73c 0bd3 cd3b
00000060: cba8 043c 0e66 9dbc c1b5 94bc a66a e0bc
00000070: 641a 08bd cfaf 1bbc 8ec6 313d 71a2 da3b
00000080: d0de 9dbc 9e90 0fbd 64a7 d53c 475d b0bc
00000090: e05f 86bb 8c2e 63bd 3fb1 1e3a 2d9e 78bd
000000a0: 5f80 193d e862 2ebd 93a5 533a 0ccb bdbc
000000b0: a992 d0bc b9a7 7d3d a685 3a3d 4c14 57bd
000000c0: 2b71 9b3c 6689 c73c 826a 463d 4e60 223d
000000d0: f587 15bd 77ee 3cbd bc41 eabc 1283 7cbb
000000e0: 85ce 6b3a 280c 17bc 6315 4fbb b324 d2bb
000000f0: b4cb 28bd 70cc 0fbd f370 97bd d288 52bb
00000100: c14e b7bc bcdb 013d 0a01 903d 7f25 b5b9
00000110: 12ea 50bc ec72 bc3c d6c6 243d 9e7f 483d
00000120: e75a 61bd 2d44 2e3c 0c03 b23c 18e7 d7bb
00000130: 2d36 27bc a834 903c 5146 2cbd 9296 88bc
00000140: 89fd e0bc ede4 13ba 2611 c9bc 3b64 203c
00000150: 1a66 d8bc d621 92bc bb10 0dbc 858e a1bc
00000160: d058 393a 1d23 273c 8dcc 40bd 2d55 d438
00000170: 5ead 8bbc 0e05 b83c 85f8 2c3d c734 c7bc
00000180: 887d cabb 054f 55bb fa35 1c3d c248 1a3d
00000190: b01b fa3a b86e 0d3c 7aa5 463d 0403 b6bb
000001a0: e5fe 533c 8a6a 033c cb5e b13d ae50 833b
000001b0: 22f4 c6bb b9ee ffbb 0a3b 2a3c 6ed2 d2ba
000001c0: bacd 65bc eb6d 383c 0276 613d 4023 c6bc
000001d0: 03f2 0d3d a080 c4bc 3ad9 ed3c 8042 33bc
000001e0: 1926 733c 3f1d be3c 722c 4ebd 46b4 73bc
000001f0: 33b9 3e3c b059 1abc 8b78 62bd 86c9 b2bc
00000200: 91d6 bbbc 9ce0 a7bc 29b3 a13c 0186 423c
00000210: 0cdb 133d 0eca 8d3c b57f 2ebc 12d9 d6bc
00000220: c347 64bc a1e1 4f3d 436b 49bd f0ce c33c
00000230: 0208 5c3c 7a8a 133d c227 023d 6b74 d63c
00000240: c50a 16bd 64f9 a9bc 6233 e23c cae9 0abd
00000250: 6ff7 e5bc 9e4e d13c 3b55 fb3c 2a74 d7ba
00000260: 0f36 833c 4693 c73c f9c3 46bd c92a 043d
00000270: f1bb c43c 1bb8 80bc c22d 2e3c bc9d 833c
00000280: 1561 bb3b f692 443c e750 f9bc e1ed d2bd
00000290: 1eba df3a eef1 1a3d f258 a53c b3d5 bdbb
000002a0: f08f 21bd 2856 893c 45fa b13b 5fa4 7dbb
000002b0: 4167 2fbd 808c de3b 2477 e93c 611b 57bb
000002c0: 9f7b cf3b acbc 703c 4c42 a9bb 5743 83bc
000002d0: fd4d a33b 9bdd 1c3c 91a7 25bc 9147 173d
000002e0: 5105 133d 8c8f 48bc f123 cebc fc96 ee3a
000002f0: e085 593c 4cf2 1ebd bb8a 12bd d62a a83a
00000300: e1b4 58bb 9dad 153a 520c e83c f718 71bd
00000310: 8261 b3bb d3ee d13b 40a2 d7bc cf56 0fbc
00000320: 028b 3dbd a11c fe3b 5945 c23c caf5 983b
00000330: 7c61 92bc 0ea2 f8bc a2e3 553d 9c46 06bd
00000340: 5871 063d e9b7 03bd e486 cbbc 75ee ccbb
00000350: a5eb e33b 1107 97bc e60c 69bc 513a 073d
00000360: 11eb b23c 4dbf 8c3c c708 a2bc 03ff faba
00000370: 9855 4a3d 9483 97bc 4baf b83c 7240 2f3d
00000380: 4fe5 bcbb 3c22 fdbc d731 c63b e70e 9abb
00000390: bf40 383c 8ee9 683c b4ee 073c 8be0 0b3c
000003a0: 3669 383d a72a 793d dbce bd3c d2d9 7ebb
000003b0: 8e27 1cbd e9bc d03c d3e5 593c b33b 8abd
000003c0: 9b6e 95bd 0a7a fd3c 6e27 c63c 3a95 00bc
000003d0: ed67 1d3c 1975 45bd 5b73 18bd 2286 983c
000003e0: 4ad8 c03c 5ebb c1bc d6d4 8bbc d18a 6e3c
000003f0: a3e1 4abb 756c 0c3d 2943 39bd 4a07 023d
-0.014833616 0.016362138 -0.03387265 -0.017692745 -0.017944947 0.014256766 -0.011743467 0.0038378641
0.03976459 0.018377362 0.0041307863 -0.031427093 -0.00996926 0.020955777 0.019908326 0.021090314
0.0042684874 -0.003205826 -0.0020993114 0.007880295 -0.0072932704 0.009726271 0.02625722 0.006281262
0.008096884 -0.019213703 -0.018153073 -0.027394604 -0.033228293 -0.009502365 0.043402247 0.0066721966
-0.019271284 -0.035050027 0.026080795 -0.021528853 -0.0041007847 -0.055464312 0.00060536334 -0.060697723
0.03747594 -0.042574793 0.0008073684 -0.02316811 -0.025460558 0.06192753 0.045537613 -0.05250959
0.018974861 0.024357509 0.048441418 0.039642625 -0.03650661 -0.046125855 -0.028595798 -0.0038530272
0.00089953124 -0.009219207 -0.003159844 -0.0064130663 -0.04120989 -0.035107076 -0.0739459 -0.0032125008
-0.02237642 0.031703696 0.07031448 -0.00034550947 -0.012751119 0.023004018 0.040228687 0.04894983
-0.05501833 0.010636372 0.021729968 -0.006588828 -0.010205788 0.017603233 -0.042059246 -0.01667336
-0.027464645 -0.00056417176 -0.02454431 0.009789522 -0.026415873 -0.0178384 -0.008609946 -0.019721279
0.0007070424 0.010201243 -0.047070075 0.00010124813 -0.017050441 0.022463348 0.042229194 -0.024317158
-0.0061795153 -0.003254832 0.038137414 0.037667044 0.0019081738 0.008632354 0.048497654 -0.0055545587
0.01293919 0.008021006 0.086606584 0.0040074205 -0.0060715834 -0.0078104404 0.010390053 -0.0016084441
-0.0140261 0.011256675 0.05504418 -0.02418673 0.03465463 -0.023987114 0.029034246 -0.010941148
0.014840626 0.023207305 -0.050335355 -0.0148745235 0.011640835 -0.009420797 -0.05529074 -0.02182461
-0.022929462 -0.020492844 0.01973875 0.011872769 0.03609757 0.017308261 -0.010650565 -0.026226554
-0.013933125 0.050752286 -0.04917456 0.023902386 0.013429644 0.036020733 0.031776197 0.02617856
-0.036631364 -0.020748802 0.027612392 -0.033914365 -0.028072087 0.025550183 0.03068029 -0.0016437818
0.016016988 0.024362218 -0.048526738 0.032267366 0.024015399 -0.015712788 0.010631027 0.016066425
0.00571836 0.011997929 -0.030434085 -0.10299278 0.0017069017 0.03782838 0.020184014 -0.005793297
-0.03944391 0.016764715 0.005431446 -0.003870271 -0.04282308 0.0067916512 0.028499193 -0.0032822716
0.0063318755 0.01469342 -0.005165374 -0.016023321 0.004983662 0.009574319 -0.010110752 0.036933485
0.035893742 -0.0122412555 -0.025163623 0.0018202956 0.013276547 -0.03880529 -0.035776835 0.0012830149
-0.0033066797 0.00057097693 0.028326187 -0.0588617 -0.0054742703 0.006406644 -0.026322484 -0.008748724
-0.046275146 0.0077548777 0.023714708 0.004667972 -0.01786875 -0.030350711 0.05221904 -0.032782182
0.032822937 -0.032157812 -0.024844594 -0.006254012 0.0069555813 -0.018435987 -0.014224267 0.0330146
0.021840604 0.017181063 -0.019779576 -0.0019149486 0.049398035 -0.018495359 0.022544524 0.04278607
-0.0057646404 -0.030900113 0.006048422 -0.0047014835 0.011245905 0.01421584 0.008296657 0.008537422
0.045022212 0.060831692 0.023169925 -0.0038887155 -0.03812366 0.025480704 0.013299423 -0.06749668
-0.07296487 0.030941982 0.024188723 -0.007848078 0.009607297 -0.048207376 -0.037219387 0.018618647
0.023540635 -0.023648914 -0.017069262 0.014559464 -0.0030957244 0.03428312 -0.045230065 0.031745233
