mitigation/tsv_info/layer_31/tsv_layer_31.npy (npy, 16512 bytes, 1 tensors)

array f4 [4096]
0.018662779 -0.03393333 -0.028390512 -0.024612617 0.023676522 -0.03214943 -0.11787984 -0.03455308
-0.023936583 0.05231458 -0.012822326 -0.032366302 -0.042558733 -0.025558075 -0.025951473 0.0275736
-0.0073323213 0.0054727965 -0.059323777 0.048458952 -0.03317671 -0.028448083 0.031953637 0.035108052
0.023436109 0.048464634 -0.116460145 0.021149864 -0.0071316096 -0.0066762585 0.03240971 -0.057038426
-0.025805032 -0.09306996 0.031027729 0.036717113 0.009026685 -0.022143746 -0.0064060763 0.043360148
-0.02860052 0.0022449847 -0.022815812 -0.009322832 -0.09630232 0.03289506 -0.013522407 0.12743989
-0.018487446 -0.17635559 0.032960497 0.013655893 -0.0295377 -0.0011567088 0.053153872 -0.022853129
-0.03440814 -0.03772253 -0.036685072 -0.032667957 -0.04076106 0.026965408 -0.016060052 0.023753429
-0.0008695225 -0.0859499 0.035587527 0.022947997 -0.028053349 -0.05429863 -0.024345133 0.011396524
0.047823153 0.0072997157 0.03244091 -0.04403627 0.00025359023 -0.024192784 -0.028503362 -0.04595649
-0.06555968 -0.0632218 -0.020978104 -0.01973427 0.039198946 0.027373357 -0.009297541 -0.010496967
-0.15615223 0.05241271 -0.013288676 0.020051941 -0.034734655 -0.022107262 0.03469403 0.037953243
-0.01814384 0.029372752 0.01053468 -0.03349598 0.040589157 0.020909969 0.014755097 0.0022789051
-0.024114367 0.047892246 0.057975985 -0.01963535 -0.090768434 0.0064946613 -0.04483331 -0.07252728
-0.028775828 0.04927572 -0.023475373 0.082653075 0.0008676666 -0.040196527 0.108944856 0.02996519
0.0006344541 -0.037559316 0.013690099 -0.0011594414 0.01378309 -0.04018453 0.031847235 0.01635481
0.022156818 0.03600863 0.027094105 -0.02350295 0.032096993 0.019075949 0.0009847925 -0.03200693
0.0015540954 -0.1334925 -0.017111404 0.025096277 -0.05517431 0.0140940575 0.07231091 -0.034802306
-0.024674647 0.03332085 0.009882122 0.035378974 0.013134222 -0.0581014 0.038712014 0.020648535
0.043834295 -0.01838106 0.024574745 0.027539685 -0.023155112 -0.010101248 -0.025000263 -0.117839955
-0.04745399 -0.08944901 -0.047254138 0.031398445 -0.018850094 0.055207234 0.016172359 0.023034282
-0.028599525 0.032180924 0.017997107 0.024739714 -0.02654756 0.037056364 0.013815919 0.028624974
-0.03911845 -0.16664033 -0.09561654 0.004509678 -0.024613108 -0.04276078 0.008034761 -0.021822777
-0.0834799 -0.0022339534 -0.040746607 -0.03226656 0.027549725 -0.053456355 -0.033509344 0.013338688
0.030228194 -0.048581377 -0.0769995 0.03833721 -0.026927417 0.03341402 0.044017047 0.017716814
0.044929847 0.028956246 0.010329101 -0.02270529 0.015865868 0.023960173 -0.004048544 0.032245927
0.024852417 -0.021241045 0.014324553 -0.063106336 0.020053841 -0.01711653 0.14063743 -0.024809523
-0.04891263 0.02582042 -0.031880997 0.033304192 -0.0005477728 0.0047491486 0.014607891 0.027609073
0.041826185 0.065014936 0.011938289 -0.04601532 -0.16086793 -0.006977428 -0.00034197903 0.026673237
0.0156881 -0.042697195 0.013319883 -0.027323883 -0.07747071 0.01173043 -0.033187527 -0.11579541
-0.023239141 0.16448066 -0.02782038 0.011215317 -0.027025662 -0.0434727 -0.112691775 0.028578078
0.03735821 0.014373769 -0.006813429 0.022719987 -0.042157233 0.025898129 -0.06183917 0.048149303
00000000: afe2 983c adfd 0abd 3893 e8bc 66a0 c9bc
00000010: 44f5 c13c 1faf 03bd fc6a f1bd 8887 0dbd
00000020: a716 c4bc d047 563d bc14 52bc 8792 04bd
00000030: 1152 2ebd 2b5f d1bc 2f98 d4bc 08e2 e13c
00000040: f843 f0bb 2555 b33b 7dfd 72bd e57c 463d
00000050: 4de4 07bd f40b e9bc d1e1 023d 76cd 0f3d
00000060: 15fd bf3c da82 463d a882 eebd 7b42 ad3c
00000070: 47b0 e9bb 84c4 dabb 0bc0 043d 20a1 69bd
00000080: 1365 d3bc 779b bebd dd2d fe3c af64 163d
00000090: a9e4 133c cd66 b5bc 10ea d1bb 699a 313d
000000a0: a34b eabc 9820 133b 3ae8 babc cbbe 18bc
000000b0: 273a c5bd f8bc 063d 168d 5dbc 9a7f 023e
000000c0: fc72 97bc 8f96 34be 9601 073d f7bc 5f3c
000000d0: 0cf9 f1bc b59c 97ba e0b7 593d 7c36 bbbc
000000e0: 8def 0cbd f182 1abd 1643 16bd d6ce 05bd
000000f0: 12f5 26bd 8fe6 dc3c 5f90 83bc 8d96 c23c
00000100: abf0 63ba 8006 b0bd 3ac4 113d 70fd bb3c
00000110: 23d0 e5bc 3e68 5ebd 726f c7bc 7cb8 3a3c
00000120: 36e2 433d 7432 ef3b c2e0 043d 605f 34bd
00000130: 4ef4 8439 f22f c6bc e27f e9bc df3c 3cbd
00000140: 2744 86bd 6e7a 81bd 46da abbc c4a9 a1bc
00000150: 138f 203d 173e e03c b754 18bc 78fb 2bbc
00000160: 5fe6 1fbe b6ae 563d bfb8 59bc f843 a43c
00000170: ed45 0ebd 4a1a b5bc 541b 0e3d dc74 1b3d
00000180: 64a2 94bc 209f f03c a799 2c3c 1533 09bd
00000190: d140 263d 624b ab3c 5dbf 713c af59 153b
000001a0: 7e8b c5bc a92a 443d 3a78 6d3d 50da a0bc
000001b0: cde4 b9bd 2bd1 d43b 22a3 37bd 2f89 94bd
000001c0: 49bb ebbc 56d5 493d 6d4f c0bc 0446 a93d
000001d0: 1f74 633a 1da5 24bd 7b1e df3d 8f79 f53c
000001e0: 7e51 263a ccd7 19bd 704c 603c 66f8 97ba
000001f0: 78d2 613c 8998 24bd 3f72 023d 86fa 853c
00000200: 3782 b53c c97d 133d 75f4 dd3c 4289 c0bc
00000210: 2378 033d 2a45 9c3c 2714 813a b319 03bd
00000220: cab2 cb3a 42b2 08be 372d 8cbc b596 cd3c
00000230: 75fe 61bd c3ea 663c be17 943d dd8c 0ebd
00000240: 7c22 cabc 727b 083d a0e8 213c 8be9 103d
00000250: eb30 573c bcfb 6dbd 7d90 1e3d 1e27 a93c
00000260: 978b 333d e093 96bc fa50 c93c e89a e13c
00000270: caaf bdbc b47f 25bc 5acd ccbc 1356 f1bd
00000280: 1d5f 42bd 0b31 b7bd 8e8d 41bd a89b 003d
00000290: 836b 9abc fb20 623d e57b 843c 64b2 bc3c
000002a0: 8d49 eabc 25d0 033d ab6e 933c f1aa ca3c
000002b0: 457a d9bc 6ac8 173d 2a5c 623c ec7e ea3c
000002c0: ab3a 20bd c3a3 2abe 9bd2 c3bd ecc5 933b
000002d0: 6ea1 c9bc ed25 2fbd 3ba4 033c aec5 b2bc
000002e0: 83f7 aabd 8567 12bb eae5 26bd f129 04bd
000002f0: f6af e13c 0df5 5abd 1841 09bd 838a 5a3c
00000300: 1ea1 f73c 44fd 46bd eab1 9dbd 7a07 1d3d
00000310: e396 dcbc 24dd 083d 384b 343d da22 913c
00000320: 5c08 383d a635 ed3c 643b 293c 7200 babc
00000330: 23f9 813c 2048 c43c a6a9 84bb 4e14 043d
00000340: 4c97 cb3c b301 aebc 88b1 6a3c e53d 81bd
00000350: f447 a43c f737 8cbc 4203 103e 573d cbbc
00000360: 9c58 48bd 5885 d33c a695 02bd fa69 083d
00000370: 6998 0fba bf9e 9b3b f055 6f3c 6c2c e23c
00000380: ef51 2b3d 8d26 853d d098 433c 8f7a 3cbd
00000390: 90ba 24be e9a2 e4bb a64b b3b9 d581 da3c
000003a0: 5584 803c 41e3 2ebd a33b 5a3c 56d6 dfbc
000003b0: f7a8 9ebd fd30 403c a5ef 07bd 2526 edbd
000003c0: 0360 bebc 9e6d 283e 91e7 e3bc 73c0 373c
000003d0: ec64 ddbc 6e10 32bd f2ca e6bd 931c ea3c
000003e0: ec04 193d f57f 6b3c 2f43 dfbb 441f ba3c
000003f0: 10ad 2cbd 5028 d43c 124b 7dbd 3438 453d
